{"modelTopology": {"model_config": {"class_name": "Model", "config": {"name": "xception", "layers": [{"name": "input_1", "class_name": "InputLayer", "inbound_nodes": [], "config": {"name": "input_1", "sparse": false, "batch_input_shape": [null, null, null, 3], "dtype": "float32"}}, {"name": "block1_conv1", "class_name": "Conv2D", "inbound_nodes": [[["input_1", 0, 0, {}]]], "config": {"bias_initializer": {"class_name": "Zeros", "config": {}}, "kernel_initializer": {"class_name": "VarianceScaling", "config": {"seed": null, "distribution": "uniform", "scale": 1.0, "mode": "fan_avg"}}, "dilation_rate": [1, 1], "kernel_size": [3, 3], "kernel_constraint": null, "bias_regularizer": null, "use_bias": false, "kernel_regularizer": null, "padding": "valid", "bias_constraint": null, "trainable": true, "name": "block1_conv1", "activity_regularizer": null, "filters": 32, "strides": [2, 2], "activation": "linear", "data_format": "channels_last"}}, {"name": "block1_conv1_bn", "class_name": "BatchNormalization", "inbound_nodes": [[["block1_conv1", 0, 0, {}]]], "config": {"momentum": 0.99, "moving_mean_initializer": {"class_name": "Zeros", "config": {}}, "scale": true, "gamma_constraint": null, "axis": -1, "center": true, "beta_regularizer": null, "gamma_initializer": {"class_name": "Ones", "config": {}}, "beta_initializer": {"class_name": "Zeros", "config": {}}, "gamma_regularizer": null, "trainable": true, "beta_constraint": null, "name": "block1_conv1_bn", "moving_variance_initializer": {"class_name": "Ones", "config": {}}, "epsilon": 0.001}}, {"name": "block1_conv1_act", "class_name": "Activation", "inbound_nodes": [[["block1_conv1_bn", 0, 0, {}]]], "config": {"name": "block1_conv1_act", "activation": "relu", "trainable": true}}, {"name": "block1_conv2", "class_name": "Conv2D", "inbound_nodes": [[["block1_conv1_act", 0, 0, {}]]], "config": {"bias_initializer": {"class_name": "Zeros", "config": {}}, "kernel_initializer": {"class_name": "VarianceScaling", "config": {"seed": null, "distribution": "uniform", "scale": 1.0, "mode": "fan_avg"}}, "dilation_rate": [1, 1], "kernel_size": [3, 3], "kernel_constraint": null, "bias_regularizer": null, "use_bias": false, "kernel_regularizer": null, "padding": "valid", "bias_constraint": null, "trainable": true, "name": "block1_conv2", "activity_regularizer": null, "filters": 64, "strides": [1, 1], "activation": "linear", "data_format": "channels_last"}}, {"name": "block1_conv2_bn", "class_name": "BatchNormalization", "inbound_nodes": [[["block1_conv2", 0, 0, {}]]], "config": {"momentum": 0.99, "moving_mean_initializer": {"class_name": "Zeros", "config": {}}, "scale": true, "gamma_constraint": null, "axis": -1, "center": true, "beta_regularizer": null, "gamma_initializer": {"class_name": "Ones", "config": {}}, "beta_initializer": {"class_name": "Zeros", "config": {}}, "gamma_regularizer": null, "trainable": true, "beta_constraint": null, "name": "block1_conv2_bn", "moving_variance_initializer": {"class_name": "Ones", "config": {}}, "epsilon": 0.001}}, {"name": "block1_conv2_act", "class_name": "Activation", "inbound_nodes": [[["block1_conv2_bn", 0, 0, {}]]], "config": {"name": "block1_conv2_act", "activation": "relu", "trainable": true}}, {"name": "block2_sepconv1", "class_name": "SeparableConv2D", "inbound_nodes": [[["block1_conv2_act", 0, 0, {}]]], "config": {"depthwise_regularizer": null, "bias_initializer": {"class_name": "Zeros", "config": {}}, "dilation_rate": [1, 1], "kernel_size": [3, 3], "pointwise_constraint": null, "bias_regularizer": null, "depth_multiplier": 1, "use_bias": false, "padding": "same", "bias_constraint": null, "pointwise_initializer": {"class_name": "VarianceScaling", "config": {"seed": null, "distribution": "uniform", "scale": 1.0, "mode": "fan_avg"}}, "data_format": "channels_last", "trainable": true, "name": "block2_sepconv1", "activity_regularizer": null, "filters": 128, "pointwise_regularizer": null, "strides": [1, 1], "activation": "linear", "depthwise_initializer": {"class_name": "VarianceScaling", "config": {"seed": null, "distribution": "uniform", "scale": 1.0, "mode": "fan_avg"}}, "depthwise_constraint": null}}, {"name": "block2_sepconv1_bn", "class_name": "BatchNormalization", "inbound_nodes": [[["block2_sepconv1", 0, 0, {}]]], "config": {"momentum": 0.99, "moving_mean_initializer": {"class_name": "Zeros", "config": {}}, "scale": true, "gamma_constraint": null, "axis": -1, "center": true, "beta_regularizer": null, "gamma_initializer": {"class_name": "Ones", "config": {}}, "beta_initializer": {"class_name": "Zeros", "config": {}}, "gamma_regularizer": null, "trainable": true, "beta_constraint": null, "name": "block2_sepconv1_bn", "moving_variance_initializer": {"class_name": "Ones", "config": {}}, "epsilon": 0.001}}, {"name": "block2_sepconv2_act", "class_name": "Activation", "inbound_nodes": [[["block2_sepconv1_bn", 0, 0, {}]]], "config": {"name": "block2_sepconv2_act", "activation": "relu", "trainable": true}}, {"name": "block2_sepconv2", "class_name": "SeparableConv2D", "inbound_nodes": [[["block2_sepconv2_act", 0, 0, {}]]], "config": {"depthwise_regularizer": null, "bias_initializer": {"class_name": "Zeros", "config": {}}, "dilation_rate": [1, 1], "kernel_size": [3, 3], "pointwise_constraint": null, "bias_regularizer": null, "depth_multiplier": 1, "use_bias": false, "padding": "same", "bias_constraint": null, "pointwise_initializer": {"class_name": "VarianceScaling", "config": {"seed": null, "distribution": "uniform", "scale": 1.0, "mode": "fan_avg"}}, "data_format": "channels_last", "trainable": true, "name": "block2_sepconv2", "activity_regularizer": null, "filters": 128, "pointwise_regularizer": null, "strides": [1, 1], "activation": "linear", "depthwise_initializer": {"class_name": "VarianceScaling", "config": {"seed": null, "distribution": "uniform", "scale": 1.0, "mode": "fan_avg"}}, "depthwise_constraint": null}}, {"name": "block2_sepconv2_bn", "class_name": "BatchNormalization", "inbound_nodes": [[["block2_sepconv2", 0, 0, {}]]], "config": {"momentum": 0.99, "moving_mean_initializer": {"class_name": "Zeros", "config": {}}, "scale": true, "gamma_constraint": null, "axis": -1, "center": true, "beta_regularizer": null, "gamma_initializer": {"class_name": "Ones", "config": {}}, "beta_initializer": {"class_name": "Zeros", "config": {}}, "gamma_regularizer": null, "trainable": true, "beta_constraint": null, "name": "block2_sepconv2_bn", "moving_variance_initializer": {"class_name": "Ones", "config": {}}, "epsilon": 0.001}}, {"name": "conv2d_1", "class_name": "Conv2D", "inbound_nodes": [[["block1_conv2_act", 0, 0, {}]]], "config": {"bias_initializer": {"class_name": "Zeros", "config": {}}, "kernel_initializer": {"class_name": "VarianceScaling", "config": {"seed": null, "distribution": "uniform", "scale": 1.0, "mode": "fan_avg"}}, "dilation_rate": [1, 1], "kernel_size": [1, 1], "kernel_constraint": null, "bias_regularizer": null, "use_bias": false, "kernel_regularizer": null, "padding": "same", "bias_constraint": null, "trainable": true, "name": "conv2d_1", "activity_regularizer": null, "filters": 128, "strides": [2, 2], "activation": "linear", "data_format": "channels_last"}}, {"name": "block2_pool", "class_name": "MaxPooling2D", "inbound_nodes": [[["block2_sepconv2_bn", 0, 0, {}]]], "config": {"padding": "same", "strides": [2, 2], "pool_size": [3, 3], "trainable": true, "name": "block2_pool", "data_format": "channels_last"}}, {"name": "batch_normalization_1", "class_name": "BatchNormalization", "inbound_nodes": [[["conv2d_1", 0, 0, {}]]], "config": {"momentum": 0.99, "moving_mean_initializer": {"class_name": "Zeros", "config": {}}, "scale": true, "gamma_constraint": null, "axis": -1, "center": true, "beta_regularizer": null, "gamma_initializer": {"class_name": "Ones", "config": {}}, "beta_initializer": {"class_name": "Zeros", "config": {}}, "gamma_regularizer": null, "trainable": true, "beta_constraint": null, "name": "batch_normalization_1", "moving_variance_initializer": {"class_name": "Ones", "config": {}}, "epsilon": 0.001}}, {"name": "add_1", "class_name": "Add", "inbound_nodes": [[["block2_pool", 0, 0, {}], ["batch_normalization_1", 0, 0, {}]]], "config": {"name": "add_1", "trainable": true}}, {"name": "block3_sepconv1_act", "class_name": "Activation", "inbound_nodes": [[["add_1", 0, 0, {}]]], "config": {"name": "block3_sepconv1_act", "activation": "relu", "trainable": true}}, {"name": "block3_sepconv1", "class_name": "SeparableConv2D", "inbound_nodes": [[["block3_sepconv1_act", 0, 0, {}]]], "config": {"depthwise_regularizer": null, "bias_initializer": {"class_name": "Zeros", "config": {}}, "dilation_rate": [1, 1], "kernel_size": [3, 3], "pointwise_constraint": null, "bias_regularizer": null, "depth_multiplier": 1, "use_bias": false, "padding": "same", "bias_constraint": null, "pointwise_initializer": {"class_name": "VarianceScaling", "config": {"seed": null, "distribution": "uniform", "scale": 1.0, "mode": "fan_avg"}}, "data_format": "channels_last", "trainable": true, "name": "block3_sepconv1", "activity_regularizer": null, "filters": 256, "pointwise_regularizer": null, "strides": [1, 1], "activation": "linear", "depthwise_initializer": {"class_name": "VarianceScaling", "config": {"seed": null, "distribution": "uniform", "scale": 1.0, "mode": "fan_avg"}}, "depthwise_constraint": null}}, {"name": "block3_sepconv1_bn", "class_name": "BatchNormalization", "inbound_nodes": [[["block3_sepconv1", 0, 0, {}]]], "config": {"momentum": 0.99, "moving_mean_initializer": {"class_name": "Zeros", "config": {}}, "scale": true, "gamma_constraint": null, "axis": -1, "center": true, "beta_regularizer": null, "gamma_initializer": {"class_name": "Ones", "config": {}}, "beta_initializer": {"class_name": "Zeros", "config": {}}, "gamma_regularizer": null, "trainable": true, "beta_constraint": null, "name": "block3_sepconv1_bn", "moving_variance_initializer": {"class_name": "Ones", "config": {}}, "epsilon": 0.001}}, {"name": "block3_sepconv2_act", "class_name": "Activation", "inbound_nodes": [[["block3_sepconv1_bn", 0, 0, {}]]], "config": {"name": "block3_sepconv2_act", "activation": "relu", "trainable": true}}, {"name": "block3_sepconv2", "class_name": "SeparableConv2D", "inbound_nodes": [[["block3_sepconv2_act", 0, 0, {}]]], "config": {"depthwise_regularizer": null, "bias_initializer": {"class_name": "Zeros", "config": {}}, "dilation_rate": [1, 1], "kernel_size": [3, 3], "pointwise_constraint": null, "bias_regularizer": null, "depth_multiplier": 1, "use_bias": false, "padding": "same", "bias_constraint": null, "pointwise_initializer": {"class_name": "VarianceScaling", "config": {"seed": null, "distribution": "uniform", "scale": 1.0, "mode": "fan_avg"}}, "data_format": "channels_last", "trainable": true, "name": "block3_sepconv2", "activity_regularizer": null, "filters": 256, "pointwise_regularizer": null, "strides": [1, 1], "activation": "linear", "depthwise_initializer": {"class_name": "VarianceScaling", "config": {"seed": null, "distribution": "uniform", "scale": 1.0, "mode": "fan_avg"}}, "depthwise_constraint": null}}, {"name": "block3_sepconv2_bn", "class_name": "BatchNormalization", "inbound_nodes": [[["block3_sepconv2", 0, 0, {}]]], "config": {"momentum": 0.99, "moving_mean_initializer": {"class_name": "Zeros", "config": {}}, "scale": true, "gamma_constraint": null, "axis": -1, "center": true, "beta_regularizer": null, "gamma_initializer": {"class_name": "Ones", "config": {}}, "beta_initializer": {"class_name": "Zeros", "config": {}}, "gamma_regularizer": null, "trainable": true, "beta_constraint": null, "name": "block3_sepconv2_bn", "moving_variance_initializer": {"class_name": "Ones", "config": {}}, "epsilon": 0.001}}, {"name": "conv2d_2", "class_name": "Conv2D", "inbound_nodes": [[["add_1", 0, 0, {}]]], "config": {"bias_initializer": {"class_name": "Zeros", "config": {}}, "kernel_initializer": {"class_name": "VarianceScaling", "config": {"seed": null, "distribution": "uniform", "scale": 1.0, "mode": "fan_avg"}}, "dilation_rate": [1, 1], "kernel_size": [1, 1], "kernel_constraint": null, "bias_regularizer": null, "use_bias": false, "kernel_regularizer": null, "padding": "same", "bias_constraint": null, "trainable": true, "name": "conv2d_2", "activity_regularizer": null, "filters": 256, "strides": [2, 2], "activation": "linear", "data_format": "channels_last"}}, {"name": "block3_pool", "class_name": "MaxPooling2D", "inbound_nodes": [[["block3_sepconv2_bn", 0, 0, {}]]], "config": {"padding": "same", "strides": [2, 2], "pool_size": [3, 3], "trainable": true, "name": "block3_pool", "data_format": "channels_last"}}, {"name": "batch_normalization_2", "class_name": "BatchNormalization", "inbound_nodes": [[["conv2d_2", 0, 0, {}]]], "config": {"momentum": 0.99, "moving_mean_initializer": {"class_name": "Zeros", "config": {}}, "scale": true, "gamma_constraint": null, "axis": -1, "center": true, "beta_regularizer": null, "gamma_initializer": {"class_name": "Ones", "config": {}}, "beta_initializer": {"class_name": "Zeros", "config": {}}, "gamma_regularizer": null, "trainable": true, "beta_constraint": null, "name": "batch_normalization_2", "moving_variance_initializer": {"class_name": "Ones", "config": {}}, "epsilon": 0.001}}, {"name": "add_2", "class_name": "Add", "inbound_nodes": [[["block3_pool", 0, 0, {}], ["batch_normalization_2", 0, 0, {}]]], "config": {"name": "add_2", "trainable": true}}, {"name": "block4_sepconv1_act", "class_name": "Activation", "inbound_nodes": [[["add_2", 0, 0, {}]]], "config": {"name": "block4_sepconv1_act", "activation": "relu", "trainable": true}}, {"name": "block4_sepconv1", "class_name": "SeparableConv2D", "inbound_nodes": [[["block4_sepconv1_act", 0, 0, {}]]], "config": {"depthwise_regularizer": null, "bias_initializer": {"class_name": "Zeros", "config": {}}, "dilation_rate": [1, 1], "kernel_size": [3, 3], "pointwise_constraint": null, "bias_regularizer": null, "depth_multiplier": 1, "use_bias": false, "padding": "same", "bias_constraint": null, "pointwise_initializer": {"class_name": "VarianceScaling", "config": {"seed": null, "distribution": "uniform", "scale": 1.0, "mode": "fan_avg"}}, "data_format": "channels_last", "trainable": true, "name": "block4_sepconv1", "activity_regularizer": null, "filters": 728, "pointwise_regularizer": null, "strides": [1, 1], "activation": "linear", "depthwise_initializer": {"class_name": "VarianceScaling", "config": {"seed": null, "distribution": "uniform", "scale": 1.0, "mode": "fan_avg"}}, "depthwise_constraint": null}}, {"name": "block4_sepconv1_bn", "class_name": "BatchNormalization", "inbound_nodes": [[["block4_sepconv1", 0, 0, {}]]], "config": {"momentum": 0.99, "moving_mean_initializer": {"class_name": "Zeros", "config": {}}, "scale": true, "gamma_constraint": null, "axis": -1, "center": true, "beta_regularizer": null, "gamma_initializer": {"class_name": "Ones", "config": {}}, "beta_initializer": {"class_name": "Zeros", "config": {}}, "gamma_regularizer": null, "trainable": true, "beta_constraint": null, "name": "block4_sepconv1_bn", "moving_variance_initializer": {"class_name": "Ones", "config": {}}, "epsilon": 0.001}}, {"name": "block4_sepconv2_act", "class_name": "Activation", "inbound_nodes": [[["block4_sepconv1_bn", 0, 0, {}]]], "config": {"name": "block4_sepconv2_act", "activation": "relu", "trainable": true}}, {"name": "block4_sepconv2", "class_name": "SeparableConv2D", "inbound_nodes": [[["block4_sepconv2_act", 0, 0, {}]]], "config": {"depthwise_regularizer": null, "bias_initializer": {"class_name": "Zeros", "config": {}}, "dilation_rate": [1, 1], "kernel_size": [3, 3], "pointwise_constraint": null, "bias_regularizer": null, "depth_multiplier": 1, "use_bias": false, "padding": "same", "bias_constraint": null, "pointwise_initializer": {"class_name": "VarianceScaling", "config": {"seed": null, "distribution": "uniform", "scale": 1.0, "mode": "fan_avg"}}, "data_format": "channels_last", "trainable": true, "name": "block4_sepconv2", "activity_regularizer": null, "filters": 728, "pointwise_regularizer": null, "strides": [1, 1], "activation": "linear", "depthwise_initializer": {"class_name": "VarianceScaling", "config": {"seed": null, "distribution": "uniform", "scale": 1.0, "mode": "fan_avg"}}, "depthwise_constraint": null}}, {"name": "block4_sepconv2_bn", "class_name": "BatchNormalization", "inbound_nodes": [[["block4_sepconv2", 0, 0, {}]]], "config": {"momentum": 0.99, "moving_mean_initializer": {"class_name": "Zeros", "config": {}}, "scale": true, "gamma_constraint": null, "axis": -1, "center": true, "beta_regularizer": null, "gamma_initializer": {"class_name": "Ones", "config": {}}, "beta_initializer": {"class_name": "Zeros", "config": {}}, "gamma_regularizer": null, "trainable": true, "beta_constraint": null, "name": "block4_sepconv2_bn", "moving_variance_initializer": {"class_name": "Ones", "config": {}}, "epsilon": 0.001}}, {"name": "conv2d_3", "class_name": "Conv2D", "inbound_nodes": [[["add_2", 0, 0, {}]]], "config": {"bias_initializer": {"class_name": "Zeros", "config": {}}, "kernel_initializer": {"class_name": "VarianceScaling", "config": {"seed": null, "distribution": "uniform", "scale": 1.0, "mode": "fan_avg"}}, "dilation_rate": [1, 1], "kernel_size": [1, 1], "kernel_constraint": null, "bias_regularizer": null, "use_bias": false, "kernel_regularizer": null, "padding": "same", "bias_constraint": null, "trainable": true, "name": "conv2d_3", "activity_regularizer": null, "filters": 728, "strides": [2, 2], "activation": "linear", "data_format": "channels_last"}}, {"name": "block4_pool", "class_name": "MaxPooling2D", "inbound_nodes": [[["block4_sepconv2_bn", 0, 0, {}]]], "config": {"padding": "same", "strides": [2, 2], "pool_size": [3, 3], "trainable": true, "name": "block4_pool", "data_format": "channels_last"}}, {"name": "batch_normalization_3", "class_name": "BatchNormalization", "inbound_nodes": [[["conv2d_3", 0, 0, {}]]], "config": {"momentum": 0.99, "moving_mean_initializer": {"class_name": "Zeros", "config": {}}, "scale": true, "gamma_constraint": null, "axis": -1, "center": true, "beta_regularizer": null, "gamma_initializer": {"class_name": "Ones", "config": {}}, "beta_initializer": {"class_name": "Zeros", "config": {}}, "gamma_regularizer": null, "trainable": true, "beta_constraint": null, "name": "batch_normalization_3", "moving_variance_initializer": {"class_name": "Ones", "config": {}}, "epsilon": 0.001}}, {"name": "add_3", "class_name": "Add", "inbound_nodes": [[["block4_pool", 0, 0, {}], ["batch_normalization_3", 0, 0, {}]]], "config": {"name": "add_3", "trainable": true}}, {"name": "block5_sepconv1_act", "class_name": "Activation", "inbound_nodes": [[["add_3", 0, 0, {}]]], "config": {"name": "block5_sepconv1_act", "activation": "relu", "trainable": true}}, {"name": "block5_sepconv1", "class_name": "SeparableConv2D", "inbound_nodes": [[["block5_sepconv1_act", 0, 0, {}]]], "config": {"depthwise_regularizer": null, "bias_initializer": {"class_name": "Zeros", "config": {}}, "dilation_rate": [1, 1], "kernel_size": [3, 3], "pointwise_constraint": null, "bias_regularizer": null, "depth_multiplier": 1, "use_bias": false, "padding": "same", "bias_constraint": null, "pointwise_initializer": {"class_name": "VarianceScaling", "config": {"seed": null, "distribution": "uniform", "scale": 1.0, "mode": "fan_avg"}}, "data_format": "channels_last", "trainable": true, "name": "block5_sepconv1", "activity_regularizer": null, "filters": 728, "pointwise_regularizer": null, "strides": [1, 1], "activation": "linear", "depthwise_initializer": {"class_name": "VarianceScaling", "config": {"seed": null, "distribution": "uniform", "scale": 1.0, "mode": "fan_avg"}}, "depthwise_constraint": null}}, {"name": "block5_sepconv1_bn", "class_name": "BatchNormalization", "inbound_nodes": [[["block5_sepconv1", 0, 0, {}]]], "config": {"momentum": 0.99, "moving_mean_initializer": {"class_name": "Zeros", "config": {}}, "scale": true, "gamma_constraint": null, "axis": -1, "center": true, "beta_regularizer": null, "gamma_initializer": {"class_name": "Ones", "config": {}}, "beta_initializer": {"class_name": "Zeros", "config": {}}, "gamma_regularizer": null, "trainable": true, "beta_constraint": null, "name": "block5_sepconv1_bn", "moving_variance_initializer": {"class_name": "Ones", "config": {}}, "epsilon": 0.001}}, {"name": "block5_sepconv2_act", "class_name": "Activation", "inbound_nodes": [[["block5_sepconv1_bn", 0, 0, {}]]], "config": {"name": "block5_sepconv2_act", "activation": "relu", "trainable": true}}, {"name": "block5_sepconv2", "class_name": "SeparableConv2D", "inbound_nodes": [[["block5_sepconv2_act", 0, 0, {}]]], "config": {"depthwise_regularizer": null, "bias_initializer": {"class_name": "Zeros", "config": {}}, "dilation_rate": [1, 1], "kernel_size": [3, 3], "pointwise_constraint": null, "bias_regularizer": null, "depth_multiplier": 1, "use_bias": false, "padding": "same", "bias_constraint": null, "pointwise_initializer": {"class_name": "VarianceScaling", "config": {"seed": null, "distribution": "uniform", "scale": 1.0, "mode": "fan_avg"}}, "data_format": "channels_last", "trainable": true, "name": "block5_sepconv2", "activity_regularizer": null, "filters": 728, "pointwise_regularizer": null, "strides": [1, 1], "activation": "linear", "depthwise_initializer": {"class_name": "VarianceScaling", "config": {"seed": null, "distribution": "uniform", "scale": 1.0, "mode": "fan_avg"}}, "depthwise_constraint": null}}, {"name": "block5_sepconv2_bn", "class_name": "BatchNormalization", "inbound_nodes": [[["block5_sepconv2", 0, 0, {}]]], "config": {"momentum": 0.99, "moving_mean_initializer": {"class_name": "Zeros", "config": {}}, "scale": true, "gamma_constraint": null, "axis": -1, "center": true, "beta_regularizer": null, "gamma_initializer": {"class_name": "Ones", "config": {}}, "beta_initializer": {"class_name": "Zeros", "config": {}}, "gamma_regularizer": null, "trainable": true, "beta_constraint": null, "name": "block5_sepconv2_bn", "moving_variance_initializer": {"class_name": "Ones", "config": {}}, "epsilon": 0.001}}, {"name": "block5_sepconv3_act", "class_name": "Activation", "inbound_nodes": [[["block5_sepconv2_bn", 0, 0, {}]]], "config": {"name": "block5_sepconv3_act", "activation": "relu", "trainable": true}}, {"name": "block5_sepconv3", "class_name": "SeparableConv2D", "inbound_nodes": [[["block5_sepconv3_act", 0, 0, {}]]], "config": {"depthwise_regularizer": null, "bias_initializer": {"class_name": "Zeros", "config": {}}, "dilation_rate": [1, 1], "kernel_size": [3, 3], "pointwise_constraint": null, "bias_regularizer": null, "depth_multiplier": 1, "use_bias": false, "padding": "same", "bias_constraint": null, "pointwise_initializer": {"class_name": "VarianceScaling", "config": {"seed": null, "distribution": "uniform", "scale": 1.0, "mode": "fan_avg"}}, "data_format": "channels_last", "trainable": true, "name": "block5_sepconv3", "activity_regularizer": null, "filters": 728, "pointwise_regularizer": null, "strides": [1, 1], "activation": "linear", "depthwise_initializer": {"class_name": "VarianceScaling", "config": {"seed": null, "distribution": "uniform", "scale": 1.0, "mode": "fan_avg"}}, "depthwise_constraint": null}}, {"name": "block5_sepconv3_bn", "class_name": "BatchNormalization", "inbound_nodes": [[["block5_sepconv3", 0, 0, {}]]], "config": {"momentum": 0.99, "moving_mean_initializer": {"class_name": "Zeros", "config": {}}, "scale": true, "gamma_constraint": null, "axis": -1, "center": true, "beta_regularizer": null, "gamma_initializer": {"class_name": "Ones", "config": {}}, "beta_initializer": {"class_name": "Zeros", "config": {}}, "gamma_regularizer": null, "trainable": true, "beta_constraint": null, "name": "block5_sepconv3_bn", "moving_variance_initializer": {"class_name": "Ones", "config": {}}, "epsilon": 0.001}}, {"name": "add_4", "class_name": "Add", "inbound_nodes": [[["block5_sepconv3_bn", 0, 0, {}], ["add_3", 0, 0, {}]]], "config": {"name": "add_4", "trainable": true}}, {"name": "block6_sepconv1_act", "class_name": "Activation", "inbound_nodes": [[["add_4", 0, 0, {}]]], "config": {"name": "block6_sepconv1_act", "activation": "relu", "trainable": true}}, {"name": "block6_sepconv1", "class_name": "SeparableConv2D", "inbound_nodes": [[["block6_sepconv1_act", 0, 0, {}]]], "config": {"depthwise_regularizer": null, "bias_initializer": {"class_name": "Zeros", "config": {}}, "dilation_rate": [1, 1], "kernel_size": [3, 3], "pointwise_constraint": null, "bias_regularizer": null, "depth_multiplier": 1, "use_bias": false, "padding": "same", "bias_constraint": null, "pointwise_initializer": {"class_name": "VarianceScaling", "config": {"seed": null, "distribution": "uniform", "scale": 1.0, "mode": "fan_avg"}}, "data_format": "channels_last", "trainable": true, "name": "block6_sepconv1", "activity_regularizer": null, "filters": 728, "pointwise_regularizer": null, "strides": [1, 1], "activation": "linear", "depthwise_initializer": {"class_name": "VarianceScaling", "config": {"seed": null, "distribution": "uniform", "scale": 1.0, "mode": "fan_avg"}}, "depthwise_constraint": null}}, {"name": "block6_sepconv1_bn", "class_name": "BatchNormalization", "inbound_nodes": [[["block6_sepconv1", 0, 0, {}]]], "config": {"momentum": 0.99, "moving_mean_initializer": {"class_name": "Zeros", "config": {}}, "scale": true, "gamma_constraint": null, "axis": -1, "center": true, "beta_regularizer": null, "gamma_initializer": {"class_name": "Ones", "config": {}}, "beta_initializer": {"class_name": "Zeros", "config": {}}, "gamma_regularizer": null, "trainable": true, "beta_constraint": null, "name": "block6_sepconv1_bn", "moving_variance_initializer": {"class_name": "Ones", "config": {}}, "epsilon": 0.001}}, {"name": "block6_sepconv2_act", "class_name": "Activation", "inbound_nodes": [[["block6_sepconv1_bn", 0, 0, {}]]], "config": {"name": "block6_sepconv2_act", "activation": "relu", "trainable": true}}, {"name": "block6_sepconv2", "class_name": "SeparableConv2D", "inbound_nodes": [[["block6_sepconv2_act", 0, 0, {}]]], "config": {"depthwise_regularizer": null, "bias_initializer": {"class_name": "Zeros", "config": {}}, "dilation_rate": [1, 1], "kernel_size": [3, 3], "pointwise_constraint": null, "bias_regularizer": null, "depth_multiplier": 1, "use_bias": false, "padding": "same", "bias_constraint": null, "pointwise_initializer": {"class_name": "VarianceScaling", "config": {"seed": null, "distribution": "uniform", "scale": 1.0, "mode": "fan_avg"}}, "data_format": "channels_last", "trainable": true, "name": "block6_sepconv2", "activity_regularizer": null, "filters": 728, "pointwise_regularizer": null, "strides": [1, 1], "activation": "linear", "depthwise_initializer": {"class_name": "VarianceScaling", "config": {"seed": null, "distribution": "uniform", "scale": 1.0, "mode": "fan_avg"}}, "depthwise_constraint": null}}, {"name": "block6_sepconv2_bn", "class_name": "BatchNormalization", "inbound_nodes": [[["block6_sepconv2", 0, 0, {}]]], "config": {"momentum": 0.99, "moving_mean_initializer": {"class_name": "Zeros", "config": {}}, "scale": true, "gamma_constraint": null, "axis": -1, "center": true, "beta_regularizer": null, "gamma_initializer": {"class_name": "Ones", "config": {}}, "beta_initializer": {"class_name": "Zeros", "config": {}}, "gamma_regularizer": null, "trainable": true, "beta_constraint": null, "name": "block6_sepconv2_bn", "moving_variance_initializer": {"class_name": "Ones", "config": {}}, "epsilon": 0.001}}, {"name": "block6_sepconv3_act", "class_name": "Activation", "inbound_nodes": [[["block6_sepconv2_bn", 0, 0, {}]]], "config": {"name": "block6_sepconv3_act", "activation": "relu", "trainable": true}}, {"name": "block6_sepconv3", "class_name": "SeparableConv2D", "inbound_nodes": [[["block6_sepconv3_act", 0, 0, {}]]], "config": {"depthwise_regularizer": null, "bias_initializer": {"class_name": "Zeros", "config": {}}, "dilation_rate": [1, 1], "kernel_size": [3, 3], "pointwise_constraint": null, "bias_regularizer": null, "depth_multiplier": 1, "use_bias": false, "padding": "same", "bias_constraint": null, "pointwise_initializer": {"class_name": "VarianceScaling", "config": {"seed": null, "distribution": "uniform", "scale": 1.0, "mode": "fan_avg"}}, "data_format": "channels_last", "trainable": true, "name": "block6_sepconv3", "activity_regularizer": null, "filters": 728, "pointwise_regularizer": null, "strides": [1, 1], "activation": "linear", "depthwise_initializer": {"class_name": "VarianceScaling", "config": {"seed": null, "distribution": "uniform", "scale": 1.0, "mode": "fan_avg"}}, "depthwise_constraint": null}}, {"name": "block6_sepconv3_bn", "class_name": "BatchNormalization", "inbound_nodes": [[["block6_sepconv3", 0, 0, {}]]], "config": {"momentum": 0.99, "moving_mean_initializer": {"class_name": "Zeros", "config": {}}, "scale": true, "gamma_constraint": null, "axis": -1, "center": true, "beta_regularizer": null, "gamma_initializer": {"class_name": "Ones", "config": {}}, "beta_initializer": {"class_name": "Zeros", "config": {}}, "gamma_regularizer": null, "trainable": true, "beta_constraint": null, "name": "block6_sepconv3_bn", "moving_variance_initializer": {"class_name": "Ones", "config": {}}, "epsilon": 0.001}}, {"name": "add_5", "class_name": "Add", "inbound_nodes": [[["block6_sepconv3_bn", 0, 0, {}], ["add_4", 0, 0, {}]]], "config": {"name": "add_5", "trainable": true}}, {"name": "block7_sepconv1_act", "class_name": "Activation", "inbound_nodes": [[["add_5", 0, 0, {}]]], "config": {"name": "block7_sepconv1_act", "activation": "relu", "trainable": true}}, {"name": "block7_sepconv1", "class_name": "SeparableConv2D", "inbound_nodes": [[["block7_sepconv1_act", 0, 0, {}]]], "config": {"depthwise_regularizer": null, "bias_initializer": {"class_name": "Zeros", "config": {}}, "dilation_rate": [1, 1], "kernel_size": [3, 3], "pointwise_constraint": null, "bias_regularizer": null, "depth_multiplier": 1, "use_bias": false, "padding": "same", "bias_constraint": null, "pointwise_initializer": {"class_name": "VarianceScaling", "config": {"seed": null, "distribution": "uniform", "scale": 1.0, "mode": "fan_avg"}}, "data_format": "channels_last", "trainable": true, "name": "block7_sepconv1", "activity_regularizer": null, "filters": 728, "pointwise_regularizer": null, "strides": [1, 1], "activation": "linear", "depthwise_initializer": {"class_name": "VarianceScaling", "config": {"seed": null, "distribution": "uniform", "scale": 1.0, "mode": "fan_avg"}}, "depthwise_constraint": null}}, {"name": "block7_sepconv1_bn", "class_name": "BatchNormalization", "inbound_nodes": [[["block7_sepconv1", 0, 0, {}]]], "config": {"momentum": 0.99, "moving_mean_initializer": {"class_name": "Zeros", "config": {}}, "scale": true, "gamma_constraint": null, "axis": -1, "center": true, "beta_regularizer": null, "gamma_initializer": {"class_name": "Ones", "config": {}}, "beta_initializer": {"class_name": "Zeros", "config": {}}, "gamma_regularizer": null, "trainable": true, "beta_constraint": null, "name": "block7_sepconv1_bn", "moving_variance_initializer": {"class_name": "Ones", "config": {}}, "epsilon": 0.001}}, {"name": "block7_sepconv2_act", "class_name": "Activation", "inbound_nodes": [[["block7_sepconv1_bn", 0, 0, {}]]], "config": {"name": "block7_sepconv2_act", "activation": "relu", "trainable": true}}, {"name": "block7_sepconv2", "class_name": "SeparableConv2D", "inbound_nodes": [[["block7_sepconv2_act", 0, 0, {}]]], "config": {"depthwise_regularizer": null, "bias_initializer": {"class_name": "Zeros", "config": {}}, "dilation_rate": [1, 1], "kernel_size": [3, 3], "pointwise_constraint": null, "bias_regularizer": null, "depth_multiplier": 1, "use_bias": false, "padding": "same", "bias_constraint": null, "pointwise_initializer": {"class_name": "VarianceScaling", "config": {"seed": null, "distribution": "uniform", "scale": 1.0, "mode": "fan_avg"}}, "data_format": "channels_last", "trainable": true, "name": "block7_sepconv2", "activity_regularizer": null, "filters": 728, "pointwise_regularizer": null, "strides": [1, 1], "activation": "linear", "depthwise_initializer": {"class_name": "VarianceScaling", "config": {"seed": null, "distribution": "uniform", "scale": 1.0, "mode": "fan_avg"}}, "depthwise_constraint": null}}, {"name": "block7_sepconv2_bn", "class_name": "BatchNormalization", "inbound_nodes": [[["block7_sepconv2", 0, 0, {}]]], "config": {"momentum": 0.99, "moving_mean_initializer": {"class_name": "Zeros", "config": {}}, "scale": true, "gamma_constraint": null, "axis": -1, "center": true, "beta_regularizer": null, "gamma_initializer": {"class_name": "Ones", "config": {}}, "beta_initializer": {"class_name": "Zeros", "config": {}}, "gamma_regularizer": null, "trainable": true, "beta_constraint": null, "name": "block7_sepconv2_bn", "moving_variance_initializer": {"class_name": "Ones", "config": {}}, "epsilon": 0.001}}, {"name": "block7_sepconv3_act", "class_name": "Activation", "inbound_nodes": [[["block7_sepconv2_bn", 0, 0, {}]]], "config": {"name": "block7_sepconv3_act", "activation": "relu", "trainable": true}}, {"name": "block7_sepconv3", "class_name": "SeparableConv2D", "inbound_nodes": [[["block7_sepconv3_act", 0, 0, {}]]], "config": {"depthwise_regularizer": null, "bias_initializer": {"class_name": "Zeros", "config": {}}, "dilation_rate": [1, 1], "kernel_size": [3, 3], "pointwise_constraint": null, "bias_regularizer": null, "depth_multiplier": 1, "use_bias": false, "padding": "same", "bias_constraint": null, "pointwise_initializer": {"class_name": "VarianceScaling", "config": {"seed": null, "distribution": "uniform", "scale": 1.0, "mode": "fan_avg"}}, "data_format": "channels_last", "trainable": true, "name": "block7_sepconv3", "activity_regularizer": null, "filters": 728, "pointwise_regularizer": null, "strides": [1, 1], "activation": "linear", "depthwise_initializer": {"class_name": "VarianceScaling", "config": {"seed": null, "distribution": "uniform", "scale": 1.0, "mode": "fan_avg"}}, "depthwise_constraint": null}}, {"name": "block7_sepconv3_bn", "class_name": "BatchNormalization", "inbound_nodes": [[["block7_sepconv3", 0, 0, {}]]], "config": {"momentum": 0.99, "moving_mean_initializer": {"class_name": "Zeros", "config": {}}, "scale": true, "gamma_constraint": null, "axis": -1, "center": true, "beta_regularizer": null, "gamma_initializer": {"class_name": "Ones", "config": {}}, "beta_initializer": {"class_name": "Zeros", "config": {}}, "gamma_regularizer": null, "trainable": true, "beta_constraint": null, "name": "block7_sepconv3_bn", "moving_variance_initializer": {"class_name": "Ones", "config": {}}, "epsilon": 0.001}}, {"name": "add_6", "class_name": "Add", "inbound_nodes": [[["block7_sepconv3_bn", 0, 0, {}], ["add_5", 0, 0, {}]]], "config": {"name": "add_6", "trainable": true}}, {"name": "block8_sepconv1_act", "class_name": "Activation", "inbound_nodes": [[["add_6", 0, 0, {}]]], "config": {"name": "block8_sepconv1_act", "activation": "relu", "trainable": true}}, {"name": "block8_sepconv1", "class_name": "SeparableConv2D", "inbound_nodes": [[["block8_sepconv1_act", 0, 0, {}]]], "config": {"depthwise_regularizer": null, "bias_initializer": {"class_name": "Zeros", "config": {}}, "dilation_rate": [1, 1], "kernel_size": [3, 3], "pointwise_constraint": null, "bias_regularizer": null, "depth_multiplier": 1, "use_bias": false, "padding": "same", "bias_constraint": null, "pointwise_initializer": {"class_name": "VarianceScaling", "config": {"seed": null, "distribution": "uniform", "scale": 1.0, "mode": "fan_avg"}}, "data_format": "channels_last", "trainable": true, "name": "block8_sepconv1", "activity_regularizer": null, "filters": 728, "pointwise_regularizer": null, "strides": [1, 1], "activation": "linear", "depthwise_initializer": {"class_name": "VarianceScaling", "config": {"seed": null, "distribution": "uniform", "scale": 1.0, "mode": "fan_avg"}}, "depthwise_constraint": null}}, {"name": "block8_sepconv1_bn", "class_name": "BatchNormalization", "inbound_nodes": [[["block8_sepconv1", 0, 0, {}]]], "config": {"momentum": 0.99, "moving_mean_initializer": {"class_name": "Zeros", "config": {}}, "scale": true, "gamma_constraint": null, "axis": -1, "center": true, "beta_regularizer": null, "gamma_initializer": {"class_name": "Ones", "config": {}}, "beta_initializer": {"class_name": "Zeros", "config": {}}, "gamma_regularizer": null, "trainable": true, "beta_constraint": null, "name": "block8_sepconv1_bn", "moving_variance_initializer": {"class_name": "Ones", "config": {}}, "epsilon": 0.001}}, {"name": "block8_sepconv2_act", "class_name": "Activation", "inbound_nodes": [[["block8_sepconv1_bn", 0, 0, {}]]], "config": {"name": "block8_sepconv2_act", "activation": "relu", "trainable": true}}, {"name": "block8_sepconv2", "class_name": "SeparableConv2D", "inbound_nodes": [[["block8_sepconv2_act", 0, 0, {}]]], "config": {"depthwise_regularizer": null, "bias_initializer": {"class_name": "Zeros", "config": {}}, "dilation_rate": [1, 1], "kernel_size": [3, 3], "pointwise_constraint": null, "bias_regularizer": null, "depth_multiplier": 1, "use_bias": false, "padding": "same", "bias_constraint": null, "pointwise_initializer": {"class_name": "VarianceScaling", "config": {"seed": null, "distribution": "uniform", "scale": 1.0, "mode": "fan_avg"}}, "data_format": "channels_last", "trainable": true, "name": "block8_sepconv2", "activity_regularizer": null, "filters": 728, "pointwise_regularizer": null, "strides": [1, 1], "activation": "linear", "depthwise_initializer": {"class_name": "VarianceScaling", "config": {"seed": null, "distribution": "uniform", "scale": 1.0, "mode": "fan_avg"}}, "depthwise_constraint": null}}, {"name": "block8_sepconv2_bn", "class_name": "BatchNormalization", "inbound_nodes": [[["block8_sepconv2", 0, 0, {}]]], "config": {"momentum": 0.99, "moving_mean_initializer": {"class_name": "Zeros", "config": {}}, "scale": true, "gamma_constraint": null, "axis": -1, "center": true, "beta_regularizer": null, "gamma_initializer": {"class_name": "Ones", "config": {}}, "beta_initializer": {"class_name": "Zeros", "config": {}}, "gamma_regularizer": null, "trainable": true, "beta_constraint": null, "name": "block8_sepconv2_bn", "moving_variance_initializer": {"class_name": "Ones", "config": {}}, "epsilon": 0.001}}, {"name": "block8_sepconv3_act", "class_name": "Activation", "inbound_nodes": [[["block8_sepconv2_bn", 0, 0, {}]]], "config": {"name": "block8_sepconv3_act", "activation": "relu", "trainable": true}}, {"name": "block8_sepconv3", "class_name": "SeparableConv2D", "inbound_nodes": [[["block8_sepconv3_act", 0, 0, {}]]], "config": {"depthwise_regularizer": null, "bias_initializer": {"class_name": "Zeros", "config": {}}, "dilation_rate": [1, 1], "kernel_size": [3, 3], "pointwise_constraint": null, "bias_regularizer": null, "depth_multiplier": 1, "use_bias": false, "padding": "same", "bias_constraint": null, "pointwise_initializer": {"class_name": "VarianceScaling", "config": {"seed": null, "distribution": "uniform", "scale": 1.0, "mode": "fan_avg"}}, "data_format": "channels_last", "trainable": true, "name": "block8_sepconv3", "activity_regularizer": null, "filters": 728, "pointwise_regularizer": null, "strides": [1, 1], "activation": "linear", "depthwise_initializer": {"class_name": "VarianceScaling", "config": {"seed": null, "distribution": "uniform", "scale": 1.0, "mode": "fan_avg"}}, "depthwise_constraint": null}}, {"name": "block8_sepconv3_bn", "class_name": "BatchNormalization", "inbound_nodes": [[["block8_sepconv3", 0, 0, {}]]], "config": {"momentum": 0.99, "moving_mean_initializer": {"class_name": "Zeros", "config": {}}, "scale": true, "gamma_constraint": null, "axis": -1, "center": true, "beta_regularizer": null, "gamma_initializer": {"class_name": "Ones", "config": {}}, "beta_initializer": {"class_name": "Zeros", "config": {}}, "gamma_regularizer": null, "trainable": true, "beta_constraint": null, "name": "block8_sepconv3_bn", "moving_variance_initializer": {"class_name": "Ones", "config": {}}, "epsilon": 0.001}}, {"name": "add_7", "class_name": "Add", "inbound_nodes": [[["block8_sepconv3_bn", 0, 0, {}], ["add_6", 0, 0, {}]]], "config": {"name": "add_7", "trainable": true}}, {"name": "block9_sepconv1_act", "class_name": "Activation", "inbound_nodes": [[["add_7", 0, 0, {}]]], "config": {"name": "block9_sepconv1_act", "activation": "relu", "trainable": true}}, {"name": "block9_sepconv1", "class_name": "SeparableConv2D", "inbound_nodes": [[["block9_sepconv1_act", 0, 0, {}]]], "config": {"depthwise_regularizer": null, "bias_initializer": {"class_name": "Zeros", "config": {}}, "dilation_rate": [1, 1], "kernel_size": [3, 3], "pointwise_constraint": null, "bias_regularizer": null, "depth_multiplier": 1, "use_bias": false, "padding": "same", "bias_constraint": null, "pointwise_initializer": {"class_name": "VarianceScaling", "config": {"seed": null, "distribution": "uniform", "scale": 1.0, "mode": "fan_avg"}}, "data_format": "channels_last", "trainable": true, "name": "block9_sepconv1", "activity_regularizer": null, "filters": 728, "pointwise_regularizer": null, "strides": [1, 1], "activation": "linear", "depthwise_initializer": {"class_name": "VarianceScaling", "config": {"seed": null, "distribution": "uniform", "scale": 1.0, "mode": "fan_avg"}}, "depthwise_constraint": null}}, {"name": "block9_sepconv1_bn", "class_name": "BatchNormalization", "inbound_nodes": [[["block9_sepconv1", 0, 0, {}]]], "config": {"momentum": 0.99, "moving_mean_initializer": {"class_name": "Zeros", "config": {}}, "scale": true, "gamma_constraint": null, "axis": -1, "center": true, "beta_regularizer": null, "gamma_initializer": {"class_name": "Ones", "config": {}}, "beta_initializer": {"class_name": "Zeros", "config": {}}, "gamma_regularizer": null, "trainable": true, "beta_constraint": null, "name": "block9_sepconv1_bn", "moving_variance_initializer": {"class_name": "Ones", "config": {}}, "epsilon": 0.001}}, {"name": "block9_sepconv2_act", "class_name": "Activation", "inbound_nodes": [[["block9_sepconv1_bn", 0, 0, {}]]], "config": {"name": "block9_sepconv2_act", "activation": "relu", "trainable": true}}, {"name": "block9_sepconv2", "class_name": "SeparableConv2D", "inbound_nodes": [[["block9_sepconv2_act", 0, 0, {}]]], "config": {"depthwise_regularizer": null, "bias_initializer": {"class_name": "Zeros", "config": {}}, "dilation_rate": [1, 1], "kernel_size": [3, 3], "pointwise_constraint": null, "bias_regularizer": null, "depth_multiplier": 1, "use_bias": false, "padding": "same", "bias_constraint": null, "pointwise_initializer": {"class_name": "VarianceScaling", "config": {"seed": null, "distribution": "uniform", "scale": 1.0, "mode": "fan_avg"}}, "data_format": "channels_last", "trainable": true, "name": "block9_sepconv2", "activity_regularizer": null, "filters": 728, "pointwise_regularizer": null, "strides": [1, 1], "activation": "linear", "depthwise_initializer": {"class_name": "VarianceScaling", "config": {"seed": null, "distribution": "uniform", "scale": 1.0, "mode": "fan_avg"}}, "depthwise_constraint": null}}, {"name": "block9_sepconv2_bn", "class_name": "BatchNormalization", "inbound_nodes": [[["block9_sepconv2", 0, 0, {}]]], "config": {"momentum": 0.99, "moving_mean_initializer": {"class_name": "Zeros", "config": {}}, "scale": true, "gamma_constraint": null, "axis": -1, "center": true, "beta_regularizer": null, "gamma_initializer": {"class_name": "Ones", "config": {}}, "beta_initializer": {"class_name": "Zeros", "config": {}}, "gamma_regularizer": null, "trainable": true, "beta_constraint": null, "name": "block9_sepconv2_bn", "moving_variance_initializer": {"class_name": "Ones", "config": {}}, "epsilon": 0.001}}, {"name": "block9_sepconv3_act", "class_name": "Activation", "inbound_nodes": [[["block9_sepconv2_bn", 0, 0, {}]]], "config": {"name": "block9_sepconv3_act", "activation": "relu", "trainable": true}}, {"name": "block9_sepconv3", "class_name": "SeparableConv2D", "inbound_nodes": [[["block9_sepconv3_act", 0, 0, {}]]], "config": {"depthwise_regularizer": null, "bias_initializer": {"class_name": "Zeros", "config": {}}, "dilation_rate": [1, 1], "kernel_size": [3, 3], "pointwise_constraint": null, "bias_regularizer": null, "depth_multiplier": 1, "use_bias": false, "padding": "same", "bias_constraint": null, "pointwise_initializer": {"class_name": "VarianceScaling", "config": {"seed": null, "distribution": "uniform", "scale": 1.0, "mode": "fan_avg"}}, "data_format": "channels_last", "trainable": true, "name": "block9_sepconv3", "activity_regularizer": null, "filters": 728, "pointwise_regularizer": null, "strides": [1, 1], "activation": "linear", "depthwise_initializer": {"class_name": "VarianceScaling", "config": {"seed": null, "distribution": "uniform", "scale": 1.0, "mode": "fan_avg"}}, "depthwise_constraint": null}}, {"name": "block9_sepconv3_bn", "class_name": "BatchNormalization", "inbound_nodes": [[["block9_sepconv3", 0, 0, {}]]], "config": {"momentum": 0.99, "moving_mean_initializer": {"class_name": "Zeros", "config": {}}, "scale": true, "gamma_constraint": null, "axis": -1, "center": true, "beta_regularizer": null, "gamma_initializer": {"class_name": "Ones", "config": {}}, "beta_initializer": {"class_name": "Zeros", "config": {}}, "gamma_regularizer": null, "trainable": true, "beta_constraint": null, "name": "block9_sepconv3_bn", "moving_variance_initializer": {"class_name": "Ones", "config": {}}, "epsilon": 0.001}}, {"name": "add_8", "class_name": "Add", "inbound_nodes": [[["block9_sepconv3_bn", 0, 0, {}], ["add_7", 0, 0, {}]]], "config": {"name": "add_8", "trainable": true}}, {"name": "block10_sepconv1_act", "class_name": "Activation", "inbound_nodes": [[["add_8", 0, 0, {}]]], "config": {"name": "block10_sepconv1_act", "activation": "relu", "trainable": true}}, {"name": "block10_sepconv1", "class_name": "SeparableConv2D", "inbound_nodes": [[["block10_sepconv1_act", 0, 0, {}]]], "config": {"depthwise_regularizer": null, "bias_initializer": {"class_name": "Zeros", "config": {}}, "dilation_rate": [1, 1], "kernel_size": [3, 3], "pointwise_constraint": null, "bias_regularizer": null, "depth_multiplier": 1, "use_bias": false, "padding": "same", "bias_constraint": null, "pointwise_initializer": {"class_name": "VarianceScaling", "config": {"seed": null, "distribution": "uniform", "scale": 1.0, "mode": "fan_avg"}}, "data_format": "channels_last", "trainable": true, "name": "block10_sepconv1", "activity_regularizer": null, "filters": 728, "pointwise_regularizer": null, "strides": [1, 1], "activation": "linear", "depthwise_initializer": {"class_name": "VarianceScaling", "config": {"seed": null, "distribution": "uniform", "scale": 1.0, "mode": "fan_avg"}}, "depthwise_constraint": null}}, {"name": "block10_sepconv1_bn", "class_name": "BatchNormalization", "inbound_nodes": [[["block10_sepconv1", 0, 0, {}]]], "config": {"momentum": 0.99, "moving_mean_initializer": {"class_name": "Zeros", "config": {}}, "scale": true, "gamma_constraint": null, "axis": -1, "center": true, "beta_regularizer": null, "gamma_initializer": {"class_name": "Ones", "config": {}}, "beta_initializer": {"class_name": "Zeros", "config": {}}, "gamma_regularizer": null, "trainable": true, "beta_constraint": null, "name": "block10_sepconv1_bn", "moving_variance_initializer": {"class_name": "Ones", "config": {}}, "epsilon": 0.001}}, {"name": "block10_sepconv2_act", "class_name": "Activation", "inbound_nodes": [[["block10_sepconv1_bn", 0, 0, {}]]], "config": {"name": "block10_sepconv2_act", "activation": "relu", "trainable": true}}, {"name": "block10_sepconv2", "class_name": "SeparableConv2D", "inbound_nodes": [[["block10_sepconv2_act", 0, 0, {}]]], "config": {"depthwise_regularizer": null, "bias_initializer": {"class_name": "Zeros", "config": {}}, "dilation_rate": [1, 1], "kernel_size": [3, 3], "pointwise_constraint": null, "bias_regularizer": null, "depth_multiplier": 1, "use_bias": false, "padding": "same", "bias_constraint": null, "pointwise_initializer": {"class_name": "VarianceScaling", "config": {"seed": null, "distribution": "uniform", "scale": 1.0, "mode": "fan_avg"}}, "data_format": "channels_last", "trainable": true, "name": "block10_sepconv2", "activity_regularizer": null, "filters": 728, "pointwise_regularizer": null, "strides": [1, 1], "activation": "linear", "depthwise_initializer": {"class_name": "VarianceScaling", "config": {"seed": null, "distribution": "uniform", "scale": 1.0, "mode": "fan_avg"}}, "depthwise_constraint": null}}, {"name": "block10_sepconv2_bn", "class_name": "BatchNormalization", "inbound_nodes": [[["block10_sepconv2", 0, 0, {}]]], "config": {"momentum": 0.99, "moving_mean_initializer": {"class_name": "Zeros", "config": {}}, "scale": true, "gamma_constraint": null, "axis": -1, "center": true, "beta_regularizer": null, "gamma_initializer": {"class_name": "Ones", "config": {}}, "beta_initializer": {"class_name": "Zeros", "config": {}}, "gamma_regularizer": null, "trainable": true, "beta_constraint": null, "name": "block10_sepconv2_bn", "moving_variance_initializer": {"class_name": "Ones", "config": {}}, "epsilon": 0.001}}, {"name": "block10_sepconv3_act", "class_name": "Activation", "inbound_nodes": [[["block10_sepconv2_bn", 0, 0, {}]]], "config": {"name": "block10_sepconv3_act", "activation": "relu", "trainable": true}}, {"name": "block10_sepconv3", "class_name": "SeparableConv2D", "inbound_nodes": [[["block10_sepconv3_act", 0, 0, {}]]], "config": {"depthwise_regularizer": null, "bias_initializer": {"class_name": "Zeros", "config": {}}, "dilation_rate": [1, 1], "kernel_size": [3, 3], "pointwise_constraint": null, "bias_regularizer": null, "depth_multiplier": 1, "use_bias": false, "padding": "same", "bias_constraint": null, "pointwise_initializer": {"class_name": "VarianceScaling", "config": {"seed": null, "distribution": "uniform", "scale": 1.0, "mode": "fan_avg"}}, "data_format": "channels_last", "trainable": true, "name": "block10_sepconv3", "activity_regularizer": null, "filters": 728, "pointwise_regularizer": null, "strides": [1, 1], "activation": "linear", "depthwise_initializer": {"class_name": "VarianceScaling", "config": {"seed": null, "distribution": "uniform", "scale": 1.0, "mode": "fan_avg"}}, "depthwise_constraint": null}}, {"name": "block10_sepconv3_bn", "class_name": "BatchNormalization", "inbound_nodes": [[["block10_sepconv3", 0, 0, {}]]], "config": {"momentum": 0.99, "moving_mean_initializer": {"class_name": "Zeros", "config": {}}, "scale": true, "gamma_constraint": null, "axis": -1, "center": true, "beta_regularizer": null, "gamma_initializer": {"class_name": "Ones", "config": {}}, "beta_initializer": {"class_name": "Zeros", "config": {}}, "gamma_regularizer": null, "trainable": true, "beta_constraint": null, "name": "block10_sepconv3_bn", "moving_variance_initializer": {"class_name": "Ones", "config": {}}, "epsilon": 0.001}}, {"name": "add_9", "class_name": "Add", "inbound_nodes": [[["block10_sepconv3_bn", 0, 0, {}], ["add_8", 0, 0, {}]]], "config": {"name": "add_9", "trainable": true}}, {"name": "block11_sepconv1_act", "class_name": "Activation", "inbound_nodes": [[["add_9", 0, 0, {}]]], "config": {"name": "block11_sepconv1_act", "activation": "relu", "trainable": true}}, {"name": "block11_sepconv1", "class_name": "SeparableConv2D", "inbound_nodes": [[["block11_sepconv1_act", 0, 0, {}]]], "config": {"depthwise_regularizer": null, "bias_initializer": {"class_name": "Zeros", "config": {}}, "dilation_rate": [1, 1], "kernel_size": [3, 3], "pointwise_constraint": null, "bias_regularizer": null, "depth_multiplier": 1, "use_bias": false, "padding": "same", "bias_constraint": null, "pointwise_initializer": {"class_name": "VarianceScaling", "config": {"seed": null, "distribution": "uniform", "scale": 1.0, "mode": "fan_avg"}}, "data_format": "channels_last", "trainable": true, "name": "block11_sepconv1", "activity_regularizer": null, "filters": 728, "pointwise_regularizer": null, "strides": [1, 1], "activation": "linear", "depthwise_initializer": {"class_name": "VarianceScaling", "config": {"seed": null, "distribution": "uniform", "scale": 1.0, "mode": "fan_avg"}}, "depthwise_constraint": null}}, {"name": "block11_sepconv1_bn", "class_name": "BatchNormalization", "inbound_nodes": [[["block11_sepconv1", 0, 0, {}]]], "config": {"momentum": 0.99, "moving_mean_initializer": {"class_name": "Zeros", "config": {}}, "scale": true, "gamma_constraint": null, "axis": -1, "center": true, "beta_regularizer": null, "gamma_initializer": {"class_name": "Ones", "config": {}}, "beta_initializer": {"class_name": "Zeros", "config": {}}, "gamma_regularizer": null, "trainable": true, "beta_constraint": null, "name": "block11_sepconv1_bn", "moving_variance_initializer": {"class_name": "Ones", "config": {}}, "epsilon": 0.001}}, {"name": "block11_sepconv2_act", "class_name": "Activation", "inbound_nodes": [[["block11_sepconv1_bn", 0, 0, {}]]], "config": {"name": "block11_sepconv2_act", "activation": "relu", "trainable": true}}, {"name": "block11_sepconv2", "class_name": "SeparableConv2D", "inbound_nodes": [[["block11_sepconv2_act", 0, 0, {}]]], "config": {"depthwise_regularizer": null, "bias_initializer": {"class_name": "Zeros", "config": {}}, "dilation_rate": [1, 1], "kernel_size": [3, 3], "pointwise_constraint": null, "bias_regularizer": null, "depth_multiplier": 1, "use_bias": false, "padding": "same", "bias_constraint": null, "pointwise_initializer": {"class_name": "VarianceScaling", "config": {"seed": null, "distribution": "uniform", "scale": 1.0, "mode": "fan_avg"}}, "data_format": "channels_last", "trainable": true, "name": "block11_sepconv2", "activity_regularizer": null, "filters": 728, "pointwise_regularizer": null, "strides": [1, 1], "activation": "linear", "depthwise_initializer": {"class_name": "VarianceScaling", "config": {"seed": null, "distribution": "uniform", "scale": 1.0, "mode": "fan_avg"}}, "depthwise_constraint": null}}, {"name": "block11_sepconv2_bn", "class_name": "BatchNormalization", "inbound_nodes": [[["block11_sepconv2", 0, 0, {}]]], "config": {"momentum": 0.99, "moving_mean_initializer": {"class_name": "Zeros", "config": {}}, "scale": true, "gamma_constraint": null, "axis": -1, "center": true, "beta_regularizer": null, "gamma_initializer": {"class_name": "Ones", "config": {}}, "beta_initializer": {"class_name": "Zeros", "config": {}}, "gamma_regularizer": null, "trainable": true, "beta_constraint": null, "name": "block11_sepconv2_bn", "moving_variance_initializer": {"class_name": "Ones", "config": {}}, "epsilon": 0.001}}, {"name": "block11_sepconv3_act", "class_name": "Activation", "inbound_nodes": [[["block11_sepconv2_bn", 0, 0, {}]]], "config": {"name": "block11_sepconv3_act", "activation": "relu", "trainable": true}}, {"name": "block11_sepconv3", "class_name": "SeparableConv2D", "inbound_nodes": [[["block11_sepconv3_act", 0, 0, {}]]], "config": {"depthwise_regularizer": null, "bias_initializer": {"class_name": "Zeros", "config": {}}, "dilation_rate": [1, 1], "kernel_size": [3, 3], "pointwise_constraint": null, "bias_regularizer": null, "depth_multiplier": 1, "use_bias": false, "padding": "same", "bias_constraint": null, "pointwise_initializer": {"class_name": "VarianceScaling", "config": {"seed": null, "distribution": "uniform", "scale": 1.0, "mode": "fan_avg"}}, "data_format": "channels_last", "trainable": true, "name": "block11_sepconv3", "activity_regularizer": null, "filters": 728, "pointwise_regularizer": null, "strides": [1, 1], "activation": "linear", "depthwise_initializer": {"class_name": "VarianceScaling", "config": {"seed": null, "distribution": "uniform", "scale": 1.0, "mode": "fan_avg"}}, "depthwise_constraint": null}}, {"name": "block11_sepconv3_bn", "class_name": "BatchNormalization", "inbound_nodes": [[["block11_sepconv3", 0, 0, {}]]], "config": {"momentum": 0.99, "moving_mean_initializer": {"class_name": "Zeros", "config": {}}, "scale": true, "gamma_constraint": null, "axis": -1, "center": true, "beta_regularizer": null, "gamma_initializer": {"class_name": "Ones", "config": {}}, "beta_initializer": {"class_name": "Zeros", "config": {}}, "gamma_regularizer": null, "trainable": true, "beta_constraint": null, "name": "block11_sepconv3_bn", "moving_variance_initializer": {"class_name": "Ones", "config": {}}, "epsilon": 0.001}}, {"name": "add_10", "class_name": "Add", "inbound_nodes": [[["block11_sepconv3_bn", 0, 0, {}], ["add_9", 0, 0, {}]]], "config": {"name": "add_10", "trainable": true}}, {"name": "block12_sepconv1_act", "class_name": "Activation", "inbound_nodes": [[["add_10", 0, 0, {}]]], "config": {"name": "block12_sepconv1_act", "activation": "relu", "trainable": true}}, {"name": "block12_sepconv1", "class_name": "SeparableConv2D", "inbound_nodes": [[["block12_sepconv1_act", 0, 0, {}]]], "config": {"depthwise_regularizer": null, "bias_initializer": {"class_name": "Zeros", "config": {}}, "dilation_rate": [1, 1], "kernel_size": [3, 3], "pointwise_constraint": null, "bias_regularizer": null, "depth_multiplier": 1, "use_bias": false, "padding": "same", "bias_constraint": null, "pointwise_initializer": {"class_name": "VarianceScaling", "config": {"seed": null, "distribution": "uniform", "scale": 1.0, "mode": "fan_avg"}}, "data_format": "channels_last", "trainable": true, "name": "block12_sepconv1", "activity_regularizer": null, "filters": 728, "pointwise_regularizer": null, "strides": [1, 1], "activation": "linear", "depthwise_initializer": {"class_name": "VarianceScaling", "config": {"seed": null, "distribution": "uniform", "scale": 1.0, "mode": "fan_avg"}}, "depthwise_constraint": null}}, {"name": "block12_sepconv1_bn", "class_name": "BatchNormalization", "inbound_nodes": [[["block12_sepconv1", 0, 0, {}]]], "config": {"momentum": 0.99, "moving_mean_initializer": {"class_name": "Zeros", "config": {}}, "scale": true, "gamma_constraint": null, "axis": -1, "center": true, "beta_regularizer": null, "gamma_initializer": {"class_name": "Ones", "config": {}}, "beta_initializer": {"class_name": "Zeros", "config": {}}, "gamma_regularizer": null, "trainable": true, "beta_constraint": null, "name": "block12_sepconv1_bn", "moving_variance_initializer": {"class_name": "Ones", "config": {}}, "epsilon": 0.001}}, {"name": "block12_sepconv2_act", "class_name": "Activation", "inbound_nodes": [[["block12_sepconv1_bn", 0, 0, {}]]], "config": {"name": "block12_sepconv2_act", "activation": "relu", "trainable": true}}, {"name": "block12_sepconv2", "class_name": "SeparableConv2D", "inbound_nodes": [[["block12_sepconv2_act", 0, 0, {}]]], "config": {"depthwise_regularizer": null, "bias_initializer": {"class_name": "Zeros", "config": {}}, "dilation_rate": [1, 1], "kernel_size": [3, 3], "pointwise_constraint": null, "bias_regularizer": null, "depth_multiplier": 1, "use_bias": false, "padding": "same", "bias_constraint": null, "pointwise_initializer": {"class_name": "VarianceScaling", "config": {"seed": null, "distribution": "uniform", "scale": 1.0, "mode": "fan_avg"}}, "data_format": "channels_last", "trainable": true, "name": "block12_sepconv2", "activity_regularizer": null, "filters": 728, "pointwise_regularizer": null, "strides": [1, 1], "activation": "linear", "depthwise_initializer": {"class_name": "VarianceScaling", "config": {"seed": null, "distribution": "uniform", "scale": 1.0, "mode": "fan_avg"}}, "depthwise_constraint": null}}, {"name": "block12_sepconv2_bn", "class_name": "BatchNormalization", "inbound_nodes": [[["block12_sepconv2", 0, 0, {}]]], "config": {"momentum": 0.99, "moving_mean_initializer": {"class_name": "Zeros", "config": {}}, "scale": true, "gamma_constraint": null, "axis": -1, "center": true, "beta_regularizer": null, "gamma_initializer": {"class_name": "Ones", "config": {}}, "beta_initializer": {"class_name": "Zeros", "config": {}}, "gamma_regularizer": null, "trainable": true, "beta_constraint": null, "name": "block12_sepconv2_bn", "moving_variance_initializer": {"class_name": "Ones", "config": {}}, "epsilon": 0.001}}, {"name": "block12_sepconv3_act", "class_name": "Activation", "inbound_nodes": [[["block12_sepconv2_bn", 0, 0, {}]]], "config": {"name": "block12_sepconv3_act", "activation": "relu", "trainable": true}}, {"name": "block12_sepconv3", "class_name": "SeparableConv2D", "inbound_nodes": [[["block12_sepconv3_act", 0, 0, {}]]], "config": {"depthwise_regularizer": null, "bias_initializer": {"class_name": "Zeros", "config": {}}, "dilation_rate": [1, 1], "kernel_size": [3, 3], "pointwise_constraint": null, "bias_regularizer": null, "depth_multiplier": 1, "use_bias": false, "padding": "same", "bias_constraint": null, "pointwise_initializer": {"class_name": "VarianceScaling", "config": {"seed": null, "distribution": "uniform", "scale": 1.0, "mode": "fan_avg"}}, "data_format": "channels_last", "trainable": true, "name": "block12_sepconv3", "activity_regularizer": null, "filters": 728, "pointwise_regularizer": null, "strides": [1, 1], "activation": "linear", "depthwise_initializer": {"class_name": "VarianceScaling", "config": {"seed": null, "distribution": "uniform", "scale": 1.0, "mode": "fan_avg"}}, "depthwise_constraint": null}}, {"name": "block12_sepconv3_bn", "class_name": "BatchNormalization", "inbound_nodes": [[["block12_sepconv3", 0, 0, {}]]], "config": {"momentum": 0.99, "moving_mean_initializer": {"class_name": "Zeros", "config": {}}, "scale": true, "gamma_constraint": null, "axis": -1, "center": true, "beta_regularizer": null, "gamma_initializer": {"class_name": "Ones", "config": {}}, "beta_initializer": {"class_name": "Zeros", "config": {}}, "gamma_regularizer": null, "trainable": true, "beta_constraint": null, "name": "block12_sepconv3_bn", "moving_variance_initializer": {"class_name": "Ones", "config": {}}, "epsilon": 0.001}}, {"name": "add_11", "class_name": "Add", "inbound_nodes": [[["block12_sepconv3_bn", 0, 0, {}], ["add_10", 0, 0, {}]]], "config": {"name": "add_11", "trainable": true}}, {"name": "block13_sepconv1_act", "class_name": "Activation", "inbound_nodes": [[["add_11", 0, 0, {}]]], "config": {"name": "block13_sepconv1_act", "activation": "relu", "trainable": true}}, {"name": "block13_sepconv1", "class_name": "SeparableConv2D", "inbound_nodes": [[["block13_sepconv1_act", 0, 0, {}]]], "config": {"depthwise_regularizer": null, "bias_initializer": {"class_name": "Zeros", "config": {}}, "dilation_rate": [1, 1], "kernel_size": [3, 3], "pointwise_constraint": null, "bias_regularizer": null, "depth_multiplier": 1, "use_bias": false, "padding": "same", "bias_constraint": null, "pointwise_initializer": {"class_name": "VarianceScaling", "config": {"seed": null, "distribution": "uniform", "scale": 1.0, "mode": "fan_avg"}}, "data_format": "channels_last", "trainable": true, "name": "block13_sepconv1", "activity_regularizer": null, "filters": 728, "pointwise_regularizer": null, "strides": [1, 1], "activation": "linear", "depthwise_initializer": {"class_name": "VarianceScaling", "config": {"seed": null, "distribution": "uniform", "scale": 1.0, "mode": "fan_avg"}}, "depthwise_constraint": null}}, {"name": "block13_sepconv1_bn", "class_name": "BatchNormalization", "inbound_nodes": [[["block13_sepconv1", 0, 0, {}]]], "config": {"momentum": 0.99, "moving_mean_initializer": {"class_name": "Zeros", "config": {}}, "scale": true, "gamma_constraint": null, "axis": -1, "center": true, "beta_regularizer": null, "gamma_initializer": {"class_name": "Ones", "config": {}}, "beta_initializer": {"class_name": "Zeros", "config": {}}, "gamma_regularizer": null, "trainable": true, "beta_constraint": null, "name": "block13_sepconv1_bn", "moving_variance_initializer": {"class_name": "Ones", "config": {}}, "epsilon": 0.001}}, {"name": "block13_sepconv2_act", "class_name": "Activation", "inbound_nodes": [[["block13_sepconv1_bn", 0, 0, {}]]], "config": {"name": "block13_sepconv2_act", "activation": "relu", "trainable": true}}, {"name": "block13_sepconv2", "class_name": "SeparableConv2D", "inbound_nodes": [[["block13_sepconv2_act", 0, 0, {}]]], "config": {"depthwise_regularizer": null, "bias_initializer": {"class_name": "Zeros", "config": {}}, "dilation_rate": [1, 1], "kernel_size": [3, 3], "pointwise_constraint": null, "bias_regularizer": null, "depth_multiplier": 1, "use_bias": false, "padding": "same", "bias_constraint": null, "pointwise_initializer": {"class_name": "VarianceScaling", "config": {"seed": null, "distribution": "uniform", "scale": 1.0, "mode": "fan_avg"}}, "data_format": "channels_last", "trainable": true, "name": "block13_sepconv2", "activity_regularizer": null, "filters": 1024, "pointwise_regularizer": null, "strides": [1, 1], "activation": "linear", "depthwise_initializer": {"class_name": "VarianceScaling", "config": {"seed": null, "distribution": "uniform", "scale": 1.0, "mode": "fan_avg"}}, "depthwise_constraint": null}}, {"name": "block13_sepconv2_bn", "class_name": "BatchNormalization", "inbound_nodes": [[["block13_sepconv2", 0, 0, {}]]], "config": {"momentum": 0.99, "moving_mean_initializer": {"class_name": "Zeros", "config": {}}, "scale": true, "gamma_constraint": null, "axis": -1, "center": true, "beta_regularizer": null, "gamma_initializer": {"class_name": "Ones", "config": {}}, "beta_initializer": {"class_name": "Zeros", "config": {}}, "gamma_regularizer": null, "trainable": true, "beta_constraint": null, "name": "block13_sepconv2_bn", "moving_variance_initializer": {"class_name": "Ones", "config": {}}, "epsilon": 0.001}}, {"name": "conv2d_4", "class_name": "Conv2D", "inbound_nodes": [[["add_11", 0, 0, {}]]], "config": {"bias_initializer": {"class_name": "Zeros", "config": {}}, "kernel_initializer": {"class_name": "VarianceScaling", "config": {"seed": null, "distribution": "uniform", "scale": 1.0, "mode": "fan_avg"}}, "dilation_rate": [1, 1], "kernel_size": [1, 1], "kernel_constraint": null, "bias_regularizer": null, "use_bias": false, "kernel_regularizer": null, "padding": "same", "bias_constraint": null, "trainable": true, "name": "conv2d_4", "activity_regularizer": null, "filters": 1024, "strides": [2, 2], "activation": "linear", "data_format": "channels_last"}}, {"name": "block13_pool", "class_name": "MaxPooling2D", "inbound_nodes": [[["block13_sepconv2_bn", 0, 0, {}]]], "config": {"padding": "same", "strides": [2, 2], "pool_size": [3, 3], "trainable": true, "name": "block13_pool", "data_format": "channels_last"}}, {"name": "batch_normalization_4", "class_name": "BatchNormalization", "inbound_nodes": [[["conv2d_4", 0, 0, {}]]], "config": {"momentum": 0.99, "moving_mean_initializer": {"class_name": "Zeros", "config": {}}, "scale": true, "gamma_constraint": null, "axis": -1, "center": true, "beta_regularizer": null, "gamma_initializer": {"class_name": "Ones", "config": {}}, "beta_initializer": {"class_name": "Zeros", "config": {}}, "gamma_regularizer": null, "trainable": true, "beta_constraint": null, "name": "batch_normalization_4", "moving_variance_initializer": {"class_name": "Ones", "config": {}}, "epsilon": 0.001}}, {"name": "add_12", "class_name": "Add", "inbound_nodes": [[["block13_pool", 0, 0, {}], ["batch_normalization_4", 0, 0, {}]]], "config": {"name": "add_12", "trainable": true}}, {"name": "block14_sepconv1", "class_name": "SeparableConv2D", "inbound_nodes": [[["add_12", 0, 0, {}]]], "config": {"depthwise_regularizer": null, "bias_initializer": {"class_name": "Zeros", "config": {}}, "dilation_rate": [1, 1], "kernel_size": [3, 3], "pointwise_constraint": null, "bias_regularizer": null, "depth_multiplier": 1, "use_bias": false, "padding": "same", "bias_constraint": null, "pointwise_initializer": {"class_name": "VarianceScaling", "config": {"seed": null, "distribution": "uniform", "scale": 1.0, "mode": "fan_avg"}}, "data_format": "channels_last", "trainable": true, "name": "block14_sepconv1", "activity_regularizer": null, "filters": 1536, "pointwise_regularizer": null, "strides": [1, 1], "activation": "linear", "depthwise_initializer": {"class_name": "VarianceScaling", "config": {"seed": null, "distribution": "uniform", "scale": 1.0, "mode": "fan_avg"}}, "depthwise_constraint": null}}, {"name": "block14_sepconv1_bn", "class_name": "BatchNormalization", "inbound_nodes": [[["block14_sepconv1", 0, 0, {}]]], "config": {"momentum": 0.99, "moving_mean_initializer": {"class_name": "Zeros", "config": {}}, "scale": true, "gamma_constraint": null, "axis": -1, "center": true, "beta_regularizer": null, "gamma_initializer": {"class_name": "Ones", "config": {}}, "beta_initializer": {"class_name": "Zeros", "config": {}}, "gamma_regularizer": null, "trainable": true, "beta_constraint": null, "name": "block14_sepconv1_bn", "moving_variance_initializer": {"class_name": "Ones", "config": {}}, "epsilon": 0.001}}, {"name": "block14_sepconv1_act", "class_name": "Activation", "inbound_nodes": [[["block14_sepconv1_bn", 0, 0, {}]]], "config": {"name": "block14_sepconv1_act", "activation": "relu", "trainable": true}}, {"name": "block14_sepconv2", "class_name": "SeparableConv2D", "inbound_nodes": [[["block14_sepconv1_act", 0, 0, {}]]], "config": {"depthwise_regularizer": null, "bias_initializer": {"class_name": "Zeros", "config": {}}, "dilation_rate": [1, 1], "kernel_size": [3, 3], "pointwise_constraint": null, "bias_regularizer": null, "depth_multiplier": 1, "use_bias": false, "padding": "same", "bias_constraint": null, "pointwise_initializer": {"class_name": "VarianceScaling", "config": {"seed": null, "distribution": "uniform", "scale": 1.0, "mode": "fan_avg"}}, "data_format": "channels_last", "trainable": true, "name": "block14_sepconv2", "activity_regularizer": null, "filters": 2048, "pointwise_regularizer": null, "strides": [1, 1], "activation": "linear", "depthwise_initializer": {"class_name": "VarianceScaling", "config": {"seed": null, "distribution": "uniform", "scale": 1.0, "mode": "fan_avg"}}, "depthwise_constraint": null}}, {"name": "block14_sepconv2_bn", "class_name": "BatchNormalization", "inbound_nodes": [[["block14_sepconv2", 0, 0, {}]]], "config": {"momentum": 0.99, "moving_mean_initializer": {"class_name": "Zeros", "config": {}}, "scale": true, "gamma_constraint": null, "axis": -1, "center": true, "beta_regularizer": null, "gamma_initializer": {"class_name": "Ones", "config": {}}, "beta_initializer": {"class_name": "Zeros", "config": {}}, "gamma_regularizer": null, "trainable": true, "beta_constraint": null, "name": "block14_sepconv2_bn", "moving_variance_initializer": {"class_name": "Ones", "config": {}}, "epsilon": 0.001}}, {"name": "block14_sepconv2_act", "class_name": "Activation", "inbound_nodes": [[["block14_sepconv2_bn", 0, 0, {}]]], "config": {"name": "block14_sepconv2_act", "activation": "relu", "trainable": true}}, {"name": "avg_pool", "class_name": "GlobalAveragePooling2D", "inbound_nodes": [[["block14_sepconv2_act", 0, 0, {}]]], "config": {"name": "avg_pool", "trainable": true, "data_format": "channels_last"}}, {"name": "predictions", "class_name": "Dense", "inbound_nodes": [[["avg_pool", 0, 0, {}]]], "config": {"bias_initializer": {"class_name": "Zeros", "config": {}}, "kernel_initializer": {"class_name": "VarianceScaling", "config": {"seed": null, "distribution": "uniform", "scale": 1.0, "mode": "fan_avg"}}, "kernel_constraint": null, "units": 1000, "bias_constraint": null, "kernel_regularizer": null, "bias_regularizer": null, "use_bias": true, "trainable": true, "name": "predictions", "activity_regularizer": null, "activation": "softmax"}}], "output_layers": [["predictions", 0, 0]], "input_layers": [["input_1", 0, 0]]}}, "backend": "tensorflow", "keras_version": "2.2.4"}, "weightsManifest": [{"paths": ["group1-shard1of22", "group1-shard2of22", "group1-shard3of22", "group1-shard4of22", "group1-shard5of22", "group1-shard6of22", "group1-shard7of22", "group1-shard8of22", "group1-shard9of22", "group1-shard10of22", "group1-shard11of22", "group1-shard12of22", "group1-shard13of22", "group1-shard14of22", "group1-shard15of22", "group1-shard16of22", "group1-shard17of22", "group1-shard18of22", "group1-shard19of22", "group1-shard20of22", "group1-shard21of22", "group1-shard22of22"], "weights": [{"name": "batch_normalization_1/gamma", "shape": [128], "dtype": "float32"}, {"name": "batch_normalization_1/beta", "shape": [128], "dtype": "float32"}, {"name": "batch_normalization_1/moving_mean", "shape": [128], "dtype": "float32"}, {"name": "batch_normalization_1/moving_variance", "shape": [128], "dtype": "float32"}, {"name": "batch_normalization_2/gamma", "shape": [256], "dtype": "float32"}, {"name": "batch_normalization_2/beta", "shape": [256], "dtype": "float32"}, {"name": "batch_normalization_2/moving_mean", "shape": [256], "dtype": "float32"}, {"name": "batch_normalization_2/moving_variance", "shape": [256], "dtype": "float32"}, {"name": "batch_normalization_3/gamma", "shape": [728], "dtype": "float32"}, {"name": "batch_normalization_3/beta", "shape": [728], "dtype": "float32"}, {"name": "batch_normalization_3/moving_mean", "shape": [728], "dtype": "float32"}, {"name": "batch_normalization_3/moving_variance", "shape": [728], "dtype": "float32"}, {"name": "batch_normalization_4/gamma", "shape": [1024], "dtype": "float32"}, {"name": "batch_normalization_4/beta", "shape": [1024], "dtype": "float32"}, {"name": "batch_normalization_4/moving_mean", "shape": [1024], "dtype": "float32"}, {"name": "batch_normalization_4/moving_variance", "shape": [1024], "dtype": "float32"}, {"name": "block10_sepconv1/depthwise_kernel", "shape": [3, 3, 728, 1], "dtype": "float32"}, {"name": "block10_sepconv1/pointwise_kernel", "shape": [1, 1, 728, 728], "dtype": "float32"}, {"name": "block10_sepconv1_bn/gamma", "shape": [728], "dtype": "float32"}, {"name": "block10_sepconv1_bn/beta", "shape": [728], "dtype": "float32"}, {"name": "block10_sepconv1_bn/moving_mean", "shape": [728], "dtype": "float32"}, {"name": "block10_sepconv1_bn/moving_variance", "shape": [728], "dtype": "float32"}, {"name": "block10_sepconv2/depthwise_kernel", "shape": [3, 3, 728, 1], "dtype": "float32"}, {"name": "block10_sepconv2/pointwise_kernel", "shape": [1, 1, 728, 728], "dtype": "float32"}, {"name": "block10_sepconv2_bn/gamma", "shape": [728], "dtype": "float32"}, {"name": "block10_sepconv2_bn/beta", "shape": [728], "dtype": "float32"}, {"name": "block10_sepconv2_bn/moving_mean", "shape": [728], "dtype": "float32"}, {"name": "block10_sepconv2_bn/moving_variance", "shape": [728], "dtype": "float32"}, {"name": "block10_sepconv3/depthwise_kernel", "shape": [3, 3, 728, 1], "dtype": "float32"}, {"name": "block10_sepconv3/pointwise_kernel", "shape": [1, 1, 728, 728], "dtype": "float32"}, {"name": "block10_sepconv3_bn/gamma", "shape": [728], "dtype": "float32"}, {"name": "block10_sepconv3_bn/beta", "shape": [728], "dtype": "float32"}, {"name": "block10_sepconv3_bn/moving_mean", "shape": [728], "dtype": "float32"}, {"name": "block10_sepconv3_bn/moving_variance", "shape": [728], "dtype": "float32"}, {"name": "block11_sepconv1/depthwise_kernel", "shape": [3, 3, 728, 1], "dtype": "float32"}, {"name": "block11_sepconv1/pointwise_kernel", "shape": [1, 1, 728, 728], "dtype": "float32"}, {"name": "block11_sepconv1_bn/gamma", "shape": [728], "dtype": "float32"}, {"name": "block11_sepconv1_bn/beta", "shape": [728], "dtype": "float32"}, {"name": "block11_sepconv1_bn/moving_mean", "shape": [728], "dtype": "float32"}, {"name": "block11_sepconv1_bn/moving_variance", "shape": [728], "dtype": "float32"}, {"name": "block11_sepconv2/depthwise_kernel", "shape": [3, 3, 728, 1], "dtype": "float32"}, {"name": "block11_sepconv2/pointwise_kernel", "shape": [1, 1, 728, 728], "dtype": "float32"}, {"name": "block11_sepconv2_bn/gamma", "shape": [728], "dtype": "float32"}, {"name": "block11_sepconv2_bn/beta", "shape": [728], "dtype": "float32"}, {"name": "block11_sepconv2_bn/moving_mean", "shape": [728], "dtype": "float32"}, {"name": "block11_sepconv2_bn/moving_variance", "shape": [728], "dtype": "float32"}, {"name": "block11_sepconv3/depthwise_kernel", "shape": [3, 3, 728, 1], "dtype": "float32"}, {"name": "block11_sepconv3/pointwise_kernel", "shape": [1, 1, 728, 728], "dtype": "float32"}, {"name": "block11_sepconv3_bn/gamma", "shape": [728], "dtype": "float32"}, {"name": "block11_sepconv3_bn/beta", "shape": [728], "dtype": "float32"}, {"name": "block11_sepconv3_bn/moving_mean", "shape": [728], "dtype": "float32"}, {"name": "block11_sepconv3_bn/moving_variance", "shape": [728], "dtype": "float32"}, {"name": "block12_sepconv1/depthwise_kernel", "shape": [3, 3, 728, 1], "dtype": "float32"}, {"name": "block12_sepconv1/pointwise_kernel", "shape": [1, 1, 728, 728], "dtype": "float32"}, {"name": "block12_sepconv1_bn/gamma", "shape": [728], "dtype": "float32"}, {"name": "block12_sepconv1_bn/beta", "shape": [728], "dtype": "float32"}, {"name": "block12_sepconv1_bn/moving_mean", "shape": [728], "dtype": "float32"}, {"name": "block12_sepconv1_bn/moving_variance", "shape": [728], "dtype": "float32"}, {"name": "block12_sepconv2/depthwise_kernel", "shape": [3, 3, 728, 1], "dtype": "float32"}, {"name": "block12_sepconv2/pointwise_kernel", "shape": [1, 1, 728, 728], "dtype": "float32"}, {"name": "block12_sepconv2_bn/gamma", "shape": [728], "dtype": "float32"}, {"name": "block12_sepconv2_bn/beta", "shape": [728], "dtype": "float32"}, {"name": "block12_sepconv2_bn/moving_mean", "shape": [728], "dtype": "float32"}, {"name": "block12_sepconv2_bn/moving_variance", "shape": [728], "dtype": "float32"}, {"name": "block12_sepconv3/depthwise_kernel", "shape": [3, 3, 728, 1], "dtype": "float32"}, {"name": "block12_sepconv3/pointwise_kernel", "shape": [1, 1, 728, 728], "dtype": "float32"}, {"name": "block12_sepconv3_bn/gamma", "shape": [728], "dtype": "float32"}, {"name": "block12_sepconv3_bn/beta", "shape": [728], "dtype": "float32"}, {"name": "block12_sepconv3_bn/moving_mean", "shape": [728], "dtype": "float32"}, {"name": "block12_sepconv3_bn/moving_variance", "shape": [728], "dtype": "float32"}, {"name": "block13_sepconv1/depthwise_kernel", "shape": [3, 3, 728, 1], "dtype": "float32"}, {"name": "block13_sepconv1/pointwise_kernel", "shape": [1, 1, 728, 728], "dtype": "float32"}, {"name": "block13_sepconv1_bn/gamma", "shape": [728], "dtype": "float32"}, {"name": "block13_sepconv1_bn/beta", "shape": [728], "dtype": "float32"}, {"name": "block13_sepconv1_bn/moving_mean", "shape": [728], "dtype": "float32"}, {"name": "block13_sepconv1_bn/moving_variance", "shape": [728], "dtype": "float32"}, {"name": "block13_sepconv2/depthwise_kernel", "shape": [3, 3, 728, 1], "dtype": "float32"}, {"name": "block13_sepconv2/pointwise_kernel", "shape": [1, 1, 728, 1024], "dtype": "float32"}, {"name": "block13_sepconv2_bn/gamma", "shape": [1024], "dtype": "float32"}, {"name": "block13_sepconv2_bn/beta", "shape": [1024], "dtype": "float32"}, {"name": "block13_sepconv2_bn/moving_mean", "shape": [1024], "dtype": "float32"}, {"name": "block13_sepconv2_bn/moving_variance", "shape": [1024], "dtype": "float32"}, {"name": "block14_sepconv1/depthwise_kernel", "shape": [3, 3, 1024, 1], "dtype": "float32"}, {"name": "block14_sepconv1/pointwise_kernel", "shape": [1, 1, 1024, 1536], "dtype": "float32"}, {"name": "block14_sepconv1_bn/gamma", "shape": [1536], "dtype": "float32"}, {"name": "block14_sepconv1_bn/beta", "shape": [1536], "dtype": "float32"}, {"name": "block14_sepconv1_bn/moving_mean", "shape": [1536], "dtype": "float32"}, {"name": "block14_sepconv1_bn/moving_variance", "shape": [1536], "dtype": "float32"}, {"name": "block14_sepconv2/depthwise_kernel", "shape": [3, 3, 1536, 1], "dtype": "float32"}, {"name": "block14_sepconv2/pointwise_kernel", "shape": [1, 1, 1536, 2048], "dtype": "float32"}, {"name": "block14_sepconv2_bn/gamma", "shape": [2048], "dtype": "float32"}, {"name": "block14_sepconv2_bn/beta", "shape": [2048], "dtype": "float32"}, {"name": "block14_sepconv2_bn/moving_mean", "shape": [2048], "dtype": "float32"}, {"name": "block14_sepconv2_bn/moving_variance", "shape": [2048], "dtype": "float32"}, {"name": "block1_conv1/kernel", "shape": [3, 3, 3, 32], "dtype": "float32"}, {"name": "block1_conv1_bn/gamma", "shape": [32], "dtype": "float32"}, {"name": "block1_conv1_bn/beta", "shape": [32], "dtype": "float32"}, {"name": "block1_conv1_bn/moving_mean", "shape": [32], "dtype": "float32"}, {"name": "block1_conv1_bn/moving_variance", "shape": [32], "dtype": "float32"}, {"name": "block1_conv2/kernel", "shape": [3, 3, 32, 64], "dtype": "float32"}, {"name": "block1_conv2_bn/gamma", "shape": [64], "dtype": "float32"}, {"name": "block1_conv2_bn/beta", "shape": [64], "dtype": "float32"}, {"name": "block1_conv2_bn/moving_mean", "shape": [64], "dtype": "float32"}, {"name": "block1_conv2_bn/moving_variance", "shape": [64], "dtype": "float32"}, {"name": "block2_sepconv1/depthwise_kernel", "shape": [3, 3, 64, 1], "dtype": "float32"}, {"name": "block2_sepconv1/pointwise_kernel", "shape": [1, 1, 64, 128], "dtype": "float32"}, {"name": "block2_sepconv1_bn/gamma", "shape": [128], "dtype": "float32"}, {"name": "block2_sepconv1_bn/beta", "shape": [128], "dtype": "float32"}, {"name": "block2_sepconv1_bn/moving_mean", "shape": [128], "dtype": "float32"}, {"name": "block2_sepconv1_bn/moving_variance", "shape": [128], "dtype": "float32"}, {"name": "block2_sepconv2/depthwise_kernel", "shape": [3, 3, 128, 1], "dtype": "float32"}, {"name": "block2_sepconv2/pointwise_kernel", "shape": [1, 1, 128, 128], "dtype": "float32"}, {"name": "block2_sepconv2_bn/gamma", "shape": [128], "dtype": "float32"}, {"name": "block2_sepconv2_bn/beta", "shape": [128], "dtype": "float32"}, {"name": "block2_sepconv2_bn/moving_mean", "shape": [128], "dtype": "float32"}, {"name": "block2_sepconv2_bn/moving_variance", "shape": [128], "dtype": "float32"}, {"name": "block3_sepconv1/depthwise_kernel", "shape": [3, 3, 128, 1], "dtype": "float32"}, {"name": "block3_sepconv1/pointwise_kernel", "shape": [1, 1, 128, 256], "dtype": "float32"}, {"name": "block3_sepconv1_bn/gamma", "shape": [256], "dtype": "float32"}, {"name": "block3_sepconv1_bn/beta", "shape": [256], "dtype": "float32"}, {"name": "block3_sepconv1_bn/moving_mean", "shape": [256], "dtype": "float32"}, {"name": "block3_sepconv1_bn/moving_variance", "shape": [256], "dtype": "float32"}, {"name": "block3_sepconv2/depthwise_kernel", "shape": [3, 3, 256, 1], "dtype": "float32"}, {"name": "block3_sepconv2/pointwise_kernel", "shape": [1, 1, 256, 256], "dtype": "float32"}, {"name": "block3_sepconv2_bn/gamma", "shape": [256], "dtype": "float32"}, {"name": "block3_sepconv2_bn/beta", "shape": [256], "dtype": "float32"}, {"name": "block3_sepconv2_bn/moving_mean", "shape": [256], "dtype": "float32"}, {"name": "block3_sepconv2_bn/moving_variance", "shape": [256], "dtype": "float32"}, {"name": "block4_sepconv1/depthwise_kernel", "shape": [3, 3, 256, 1], "dtype": "float32"}, {"name": "block4_sepconv1/pointwise_kernel", "shape": [1, 1, 256, 728], "dtype": "float32"}, {"name": "block4_sepconv1_bn/gamma", "shape": [728], "dtype": "float32"}, {"name": "block4_sepconv1_bn/beta", "shape": [728], "dtype": "float32"}, {"name": "block4_sepconv1_bn/moving_mean", "shape": [728], "dtype": "float32"}, {"name": "block4_sepconv1_bn/moving_variance", "shape": [728], "dtype": "float32"}, {"name": "block4_sepconv2/depthwise_kernel", "shape": [3, 3, 728, 1], "dtype": "float32"}, {"name": "block4_sepconv2/pointwise_kernel", "shape": [1, 1, 728, 728], "dtype": "float32"}, {"name": "block4_sepconv2_bn/gamma", "shape": [728], "dtype": "float32"}, {"name": "block4_sepconv2_bn/beta", "shape": [728], "dtype": "float32"}, {"name": "block4_sepconv2_bn/moving_mean", "shape": [728], "dtype": "float32"}, {"name": "block4_sepconv2_bn/moving_variance", "shape": [728], "dtype": "float32"}, {"name": "block5_sepconv1/depthwise_kernel", "shape": [3, 3, 728, 1], "dtype": "float32"}, {"name": "block5_sepconv1/pointwise_kernel", "shape": [1, 1, 728, 728], "dtype": "float32"}, {"name": "block5_sepconv1_bn/gamma", "shape": [728], "dtype": "float32"}, {"name": "block5_sepconv1_bn/beta", "shape": [728], "dtype": "float32"}, {"name": "block5_sepconv1_bn/moving_mean", "shape": [728], "dtype": "float32"}, {"name": "block5_sepconv1_bn/moving_variance", "shape": [728], "dtype": "float32"}, {"name": "block5_sepconv2/depthwise_kernel", "shape": [3, 3, 728, 1], "dtype": "float32"}, {"name": "block5_sepconv2/pointwise_kernel", "shape": [1, 1, 728, 728], "dtype": "float32"}, {"name": "block5_sepconv2_bn/gamma", "shape": [728], "dtype": "float32"}, {"name": "block5_sepconv2_bn/beta", "shape": [728], "dtype": "float32"}, {"name": "block5_sepconv2_bn/moving_mean", "shape": [728], "dtype": "float32"}, {"name": "block5_sepconv2_bn/moving_variance", "shape": [728], "dtype": "float32"}, {"name": "block5_sepconv3/depthwise_kernel", "shape": [3, 3, 728, 1], "dtype": "float32"}, {"name": "block5_sepconv3/pointwise_kernel", "shape": [1, 1, 728, 728], "dtype": "float32"}, {"name": "block5_sepconv3_bn/gamma", "shape": [728], "dtype": "float32"}, {"name": "block5_sepconv3_bn/beta", "shape": [728], "dtype": "float32"}, {"name": "block5_sepconv3_bn/moving_mean", "shape": [728], "dtype": "float32"}, {"name": "block5_sepconv3_bn/moving_variance", "shape": [728], "dtype": "float32"}, {"name": "block6_sepconv1/depthwise_kernel", "shape": [3, 3, 728, 1], "dtype": "float32"}, {"name": "block6_sepconv1/pointwise_kernel", "shape": [1, 1, 728, 728], "dtype": "float32"}, {"name": "block6_sepconv1_bn/gamma", "shape": [728], "dtype": "float32"}, {"name": "block6_sepconv1_bn/beta", "shape": [728], "dtype": "float32"}, {"name": "block6_sepconv1_bn/moving_mean", "shape": [728], "dtype": "float32"}, {"name": "block6_sepconv1_bn/moving_variance", "shape": [728], "dtype": "float32"}, {"name": "block6_sepconv2/depthwise_kernel", "shape": [3, 3, 728, 1], "dtype": "float32"}, {"name": "block6_sepconv2/pointwise_kernel", "shape": [1, 1, 728, 728], "dtype": "float32"}, {"name": "block6_sepconv2_bn/gamma", "shape": [728], "dtype": "float32"}, {"name": "block6_sepconv2_bn/beta", "shape": [728], "dtype": "float32"}, {"name": "block6_sepconv2_bn/moving_mean", "shape": [728], "dtype": "float32"}, {"name": "block6_sepconv2_bn/moving_variance", "shape": [728], "dtype": "float32"}, {"name": "block6_sepconv3/depthwise_kernel", "shape": [3, 3, 728, 1], "dtype": "float32"}, {"name": "block6_sepconv3/pointwise_kernel", "shape": [1, 1, 728, 728], "dtype": "float32"}, {"name": "block6_sepconv3_bn/gamma", "shape": [728], "dtype": "float32"}, {"name": "block6_sepconv3_bn/beta", "shape": [728], "dtype": "float32"}, {"name": "block6_sepconv3_bn/moving_mean", "shape": [728], "dtype": "float32"}, {"name": "block6_sepconv3_bn/moving_variance", "shape": [728], "dtype": "float32"}, {"name": "block7_sepconv1/depthwise_kernel", "shape": [3, 3, 728, 1], "dtype": "float32"}, {"name": "block7_sepconv1/pointwise_kernel", "shape": [1, 1, 728, 728], "dtype": "float32"}, {"name": "block7_sepconv1_bn/gamma", "shape": [728], "dtype": "float32"}, {"name": "block7_sepconv1_bn/beta", "shape": [728], "dtype": "float32"}, {"name": "block7_sepconv1_bn/moving_mean", "shape": [728], "dtype": "float32"}, {"name": "block7_sepconv1_bn/moving_variance", "shape": [728], "dtype": "float32"}, {"name": "block7_sepconv2/depthwise_kernel", "shape": [3, 3, 728, 1], "dtype": "float32"}, {"name": "block7_sepconv2/pointwise_kernel", "shape": [1, 1, 728, 728], "dtype": "float32"}, {"name": "block7_sepconv2_bn/gamma", "shape": [728], "dtype": "float32"}, {"name": "block7_sepconv2_bn/beta", "shape": [728], "dtype": "float32"}, {"name": "block7_sepconv2_bn/moving_mean", "shape": [728], "dtype": "float32"}, {"name": "block7_sepconv2_bn/moving_variance", "shape": [728], "dtype": "float32"}, {"name": "block7_sepconv3/depthwise_kernel", "shape": [3, 3, 728, 1], "dtype": "float32"}, {"name": "block7_sepconv3/pointwise_kernel", "shape": [1, 1, 728, 728], "dtype": "float32"}, {"name": "block7_sepconv3_bn/gamma", "shape": [728], "dtype": "float32"}, {"name": "block7_sepconv3_bn/beta", "shape": [728], "dtype": "float32"}, {"name": "block7_sepconv3_bn/moving_mean", "shape": [728], "dtype": "float32"}, {"name": "block7_sepconv3_bn/moving_variance", "shape": [728], "dtype": "float32"}, {"name": "block8_sepconv1/depthwise_kernel", "shape": [3, 3, 728, 1], "dtype": "float32"}, {"name": "block8_sepconv1/pointwise_kernel", "shape": [1, 1, 728, 728], "dtype": "float32"}, {"name": "block8_sepconv1_bn/gamma", "shape": [728], "dtype": "float32"}, {"name": "block8_sepconv1_bn/beta", "shape": [728], "dtype": "float32"}, {"name": "block8_sepconv1_bn/moving_mean", "shape": [728], "dtype": "float32"}, {"name": "block8_sepconv1_bn/moving_variance", "shape": [728], "dtype": "float32"}, {"name": "block8_sepconv2/depthwise_kernel", "shape": [3, 3, 728, 1], "dtype": "float32"}, {"name": "block8_sepconv2/pointwise_kernel", "shape": [1, 1, 728, 728], "dtype": "float32"}, {"name": "block8_sepconv2_bn/gamma", "shape": [728], "dtype": "float32"}, {"name": "block8_sepconv2_bn/beta", "shape": [728], "dtype": "float32"}, {"name": "block8_sepconv2_bn/moving_mean", "shape": [728], "dtype": "float32"}, {"name": "block8_sepconv2_bn/moving_variance", "shape": [728], "dtype": "float32"}, {"name": "block8_sepconv3/depthwise_kernel", "shape": [3, 3, 728, 1], "dtype": "float32"}, {"name": "block8_sepconv3/pointwise_kernel", "shape": [1, 1, 728, 728], "dtype": "float32"}, {"name": "block8_sepconv3_bn/gamma", "shape": [728], "dtype": "float32"}, {"name": "block8_sepconv3_bn/beta", "shape": [728], "dtype": "float32"}, {"name": "block8_sepconv3_bn/moving_mean", "shape": [728], "dtype": "float32"}, {"name": "block8_sepconv3_bn/moving_variance", "shape": [728], "dtype": "float32"}, {"name": "block9_sepconv1/depthwise_kernel", "shape": [3, 3, 728, 1], "dtype": "float32"}, {"name": "block9_sepconv1/pointwise_kernel", "shape": [1, 1, 728, 728], "dtype": "float32"}, {"name": "block9_sepconv1_bn/gamma", "shape": [728], "dtype": "float32"}, {"name": "block9_sepconv1_bn/beta", "shape": [728], "dtype": "float32"}, {"name": "block9_sepconv1_bn/moving_mean", "shape": [728], "dtype": "float32"}, {"name": "block9_sepconv1_bn/moving_variance", "shape": [728], "dtype": "float32"}, {"name": "block9_sepconv2/depthwise_kernel", "shape": [3, 3, 728, 1], "dtype": "float32"}, {"name": "block9_sepconv2/pointwise_kernel", "shape": [1, 1, 728, 728], "dtype": "float32"}, {"name": "block9_sepconv2_bn/gamma", "shape": [728], "dtype": "float32"}, {"name": "block9_sepconv2_bn/beta", "shape": [728], "dtype": "float32"}, {"name": "block9_sepconv2_bn/moving_mean", "shape": [728], "dtype": "float32"}, {"name": "block9_sepconv2_bn/moving_variance", "shape": [728], "dtype": "float32"}, {"name": "block9_sepconv3/depthwise_kernel", "shape": [3, 3, 728, 1], "dtype": "float32"}, {"name": "block9_sepconv3/pointwise_kernel", "shape": [1, 1, 728, 728], "dtype": "float32"}, {"name": "block9_sepconv3_bn/gamma", "shape": [728], "dtype": "float32"}, {"name": "block9_sepconv3_bn/beta", "shape": [728], "dtype": "float32"}, {"name": "block9_sepconv3_bn/moving_mean", "shape": [728], "dtype": "float32"}, {"name": "block9_sepconv3_bn/moving_variance", "shape": [728], "dtype": "float32"}, {"name": "conv2d_1/kernel", "shape": [1, 1, 64, 128], "dtype": "float32"}, {"name": "conv2d_2/kernel", "shape": [1, 1, 128, 256], "dtype": "float32"}, {"name": "conv2d_3/kernel", "shape": [1, 1, 256, 728], "dtype": "float32"}, {"name": "conv2d_4/kernel", "shape": [1, 1, 728, 1024], "dtype": "float32"}, {"name": "predictions/kernel", "shape": [2048, 1000], "dtype": "float32"}, {"name": "predictions/bias", "shape": [1000], "dtype": "float32"}]}]}