{"modelTopology": {"model_config": {"config": {"name": "resnet50", "layers": [{"name": "input_1", "config": {"name": "input_1", "sparse": false, "dtype": "float32", "batch_input_shape": [null, 224, 224, 3]}, "class_name": "InputLayer", "inbound_nodes": []}, {"name": "conv1_pad", "config": {"name": "conv1_pad", "trainable": true, "data_format": "channels_last", "padding": [[3, 3], [3, 3]]}, "class_name": "ZeroPadding2D", "inbound_nodes": [[["input_1", 0, 0, {}]]]}, {"name": "conv1", "config": {"bias_regularizer": null, "filters": 64, "padding": "valid", "bias_constraint": null, "strides": [2, 2], "name": "conv1", "use_bias": true, "activity_regularizer": null, "bias_initializer": {"config": {}, "class_name": "Zeros"}, "kernel_size": [7, 7], "trainable": true, "data_format": "channels_last", "kernel_regularizer": null, "dilation_rate": [1, 1], "kernel_constraint": null, "kernel_initializer": {"config": {"distribution": "normal", "mode": "fan_in", "seed": null, "scale": 2.0}, "class_name": "VarianceScaling"}, "activation": "linear"}, "class_name": "Conv2D", "inbound_nodes": [[["conv1_pad", 0, 0, {}]]]}, {"name": "bn_conv1", "config": {"beta_initializer": {"config": {}, "class_name": "Zeros"}, "gamma_constraint": null, "gamma_regularizer": null, "beta_regularizer": null, "epsilon": 0.001, "beta_constraint": null, "name": "bn_conv1", "momentum": 0.99, "center": true, "trainable": true, "moving_variance_initializer": {"config": {}, "class_name": "Ones"}, "axis": 3, "scale": true, "gamma_initializer": {"config": {}, "class_name": "Ones"}, "moving_mean_initializer": {"config": {}, "class_name": "Zeros"}}, "class_name": "BatchNormalization", "inbound_nodes": [[["conv1", 0, 0, {}]]]}, {"name": "activation_1", "config": {"name": "activation_1", "trainable": true, "activation": "relu"}, "class_name": "Activation", "inbound_nodes": [[["bn_conv1", 0, 0, {}]]]}, {"name": "pool1_pad", "config": {"name": "pool1_pad", "trainable": true, "data_format": "channels_last", "padding": [[1, 1], [1, 1]]}, "class_name": "ZeroPadding2D", "inbound_nodes": [[["activation_1", 0, 0, {}]]]}, {"name": "max_pooling2d_1", "config": {"strides": [2, 2], "trainable": true, "data_format": "channels_last", "padding": "valid", "name": "max_pooling2d_1", "pool_size": [3, 3]}, "class_name": "MaxPooling2D", "inbound_nodes": [[["pool1_pad", 0, 0, {}]]]}, {"name": "res2a_branch2a", "config": {"bias_regularizer": null, "filters": 64, "padding": "valid", "bias_constraint": null, "strides": [1, 1], "name": "res2a_branch2a", "use_bias": true, "activity_regularizer": null, "bias_initializer": {"config": {}, "class_name": "Zeros"}, "kernel_size": [1, 1], "trainable": true, "data_format": "channels_last", "kernel_regularizer": null, "dilation_rate": [1, 1], "kernel_constraint": null, "kernel_initializer": {"config": {"distribution": "normal", "mode": "fan_in", "seed": null, "scale": 2.0}, "class_name": "VarianceScaling"}, "activation": "linear"}, "class_name": "Conv2D", "inbound_nodes": [[["max_pooling2d_1", 0, 0, {}]]]}, {"name": "bn2a_branch2a", "config": {"beta_initializer": {"config": {}, "class_name": "Zeros"}, "gamma_constraint": null, "gamma_regularizer": null, "beta_regularizer": null, "epsilon": 0.001, "beta_constraint": null, "name": "bn2a_branch2a", "momentum": 0.99, "center": true, "trainable": true, "moving_variance_initializer": {"config": {}, "class_name": "Ones"}, "axis": 3, "scale": true, "gamma_initializer": {"config": {}, "class_name": "Ones"}, "moving_mean_initializer": {"config": {}, "class_name": "Zeros"}}, "class_name": "BatchNormalization", "inbound_nodes": [[["res2a_branch2a", 0, 0, {}]]]}, {"name": "activation_2", "config": {"name": "activation_2", "trainable": true, "activation": "relu"}, "class_name": "Activation", "inbound_nodes": [[["bn2a_branch2a", 0, 0, {}]]]}, {"name": "res2a_branch2b", "config": {"bias_regularizer": null, "filters": 64, "padding": "same", "bias_constraint": null, "strides": [1, 1], "name": "res2a_branch2b", "use_bias": true, "activity_regularizer": null, "bias_initializer": {"config": {}, "class_name": "Zeros"}, "kernel_size": [3, 3], "trainable": true, "data_format": "channels_last", "kernel_regularizer": null, "dilation_rate": [1, 1], "kernel_constraint": null, "kernel_initializer": {"config": {"distribution": "normal", "mode": "fan_in", "seed": null, "scale": 2.0}, "class_name": "VarianceScaling"}, "activation": "linear"}, "class_name": "Conv2D", "inbound_nodes": [[["activation_2", 0, 0, {}]]]}, {"name": "bn2a_branch2b", "config": {"beta_initializer": {"config": {}, "class_name": "Zeros"}, "gamma_constraint": null, "gamma_regularizer": null, "beta_regularizer": null, "epsilon": 0.001, "beta_constraint": null, "name": "bn2a_branch2b", "momentum": 0.99, "center": true, "trainable": true, "moving_variance_initializer": {"config": {}, "class_name": "Ones"}, "axis": 3, "scale": true, "gamma_initializer": {"config": {}, "class_name": "Ones"}, "moving_mean_initializer": {"config": {}, "class_name": "Zeros"}}, "class_name": "BatchNormalization", "inbound_nodes": [[["res2a_branch2b", 0, 0, {}]]]}, {"name": "activation_3", "config": {"name": "activation_3", "trainable": true, "activation": "relu"}, "class_name": "Activation", "inbound_nodes": [[["bn2a_branch2b", 0, 0, {}]]]}, {"name": "res2a_branch2c", "config": {"bias_regularizer": null, "filters": 256, "padding": "valid", "bias_constraint": null, "strides": [1, 1], "name": "res2a_branch2c", "use_bias": true, "activity_regularizer": null, "bias_initializer": {"config": {}, "class_name": "Zeros"}, "kernel_size": [1, 1], "trainable": true, "data_format": "channels_last", "kernel_regularizer": null, "dilation_rate": [1, 1], "kernel_constraint": null, "kernel_initializer": {"config": {"distribution": "normal", "mode": "fan_in", "seed": null, "scale": 2.0}, "class_name": "VarianceScaling"}, "activation": "linear"}, "class_name": "Conv2D", "inbound_nodes": [[["activation_3", 0, 0, {}]]]}, {"name": "res2a_branch1", "config": {"bias_regularizer": null, "filters": 256, "padding": "valid", "bias_constraint": null, "strides": [1, 1], "name": "res2a_branch1", "use_bias": true, "activity_regularizer": null, "bias_initializer": {"config": {}, "class_name": "Zeros"}, "kernel_size": [1, 1], "trainable": true, "data_format": "channels_last", "kernel_regularizer": null, "dilation_rate": [1, 1], "kernel_constraint": null, "kernel_initializer": {"config": {"distribution": "normal", "mode": "fan_in", "seed": null, "scale": 2.0}, "class_name": "VarianceScaling"}, "activation": "linear"}, "class_name": "Conv2D", "inbound_nodes": [[["max_pooling2d_1", 0, 0, {}]]]}, {"name": "bn2a_branch2c", "config": {"beta_initializer": {"config": {}, "class_name": "Zeros"}, "gamma_constraint": null, "gamma_regularizer": null, "beta_regularizer": null, "epsilon": 0.001, "beta_constraint": null, "name": "bn2a_branch2c", "momentum": 0.99, "center": true, "trainable": true, "moving_variance_initializer": {"config": {}, "class_name": "Ones"}, "axis": 3, "scale": true, "gamma_initializer": {"config": {}, "class_name": "Ones"}, "moving_mean_initializer": {"config": {}, "class_name": "Zeros"}}, "class_name": "BatchNormalization", "inbound_nodes": [[["res2a_branch2c", 0, 0, {}]]]}, {"name": "bn2a_branch1", "config": {"beta_initializer": {"config": {}, "class_name": "Zeros"}, "gamma_constraint": null, "gamma_regularizer": null, "beta_regularizer": null, "epsilon": 0.001, "beta_constraint": null, "name": "bn2a_branch1", "momentum": 0.99, "center": true, "trainable": true, "moving_variance_initializer": {"config": {}, "class_name": "Ones"}, "axis": 3, "scale": true, "gamma_initializer": {"config": {}, "class_name": "Ones"}, "moving_mean_initializer": {"config": {}, "class_name": "Zeros"}}, "class_name": "BatchNormalization", "inbound_nodes": [[["res2a_branch1", 0, 0, {}]]]}, {"name": "add_1", "config": {"name": "add_1", "trainable": true}, "class_name": "Add", "inbound_nodes": [[["bn2a_branch2c", 0, 0, {}], ["bn2a_branch1", 0, 0, {}]]]}, {"name": "activation_4", "config": {"name": "activation_4", "trainable": true, "activation": "relu"}, "class_name": "Activation", "inbound_nodes": [[["add_1", 0, 0, {}]]]}, {"name": "res2b_branch2a", "config": {"bias_regularizer": null, "filters": 64, "padding": "valid", "bias_constraint": null, "strides": [1, 1], "name": "res2b_branch2a", "use_bias": true, "activity_regularizer": null, "bias_initializer": {"config": {}, "class_name": "Zeros"}, "kernel_size": [1, 1], "trainable": true, "data_format": "channels_last", "kernel_regularizer": null, "dilation_rate": [1, 1], "kernel_constraint": null, "kernel_initializer": {"config": {"distribution": "normal", "mode": "fan_in", "seed": null, "scale": 2.0}, "class_name": "VarianceScaling"}, "activation": "linear"}, "class_name": "Conv2D", "inbound_nodes": [[["activation_4", 0, 0, {}]]]}, {"name": "bn2b_branch2a", "config": {"beta_initializer": {"config": {}, "class_name": "Zeros"}, "gamma_constraint": null, "gamma_regularizer": null, "beta_regularizer": null, "epsilon": 0.001, "beta_constraint": null, "name": "bn2b_branch2a", "momentum": 0.99, "center": true, "trainable": true, "moving_variance_initializer": {"config": {}, "class_name": "Ones"}, "axis": 3, "scale": true, "gamma_initializer": {"config": {}, "class_name": "Ones"}, "moving_mean_initializer": {"config": {}, "class_name": "Zeros"}}, "class_name": "BatchNormalization", "inbound_nodes": [[["res2b_branch2a", 0, 0, {}]]]}, {"name": "activation_5", "config": {"name": "activation_5", "trainable": true, "activation": "relu"}, "class_name": "Activation", "inbound_nodes": [[["bn2b_branch2a", 0, 0, {}]]]}, {"name": "res2b_branch2b", "config": {"bias_regularizer": null, "filters": 64, "padding": "same", "bias_constraint": null, "strides": [1, 1], "name": "res2b_branch2b", "use_bias": true, "activity_regularizer": null, "bias_initializer": {"config": {}, "class_name": "Zeros"}, "kernel_size": [3, 3], "trainable": true, "data_format": "channels_last", "kernel_regularizer": null, "dilation_rate": [1, 1], "kernel_constraint": null, "kernel_initializer": {"config": {"distribution": "normal", "mode": "fan_in", "seed": null, "scale": 2.0}, "class_name": "VarianceScaling"}, "activation": "linear"}, "class_name": "Conv2D", "inbound_nodes": [[["activation_5", 0, 0, {}]]]}, {"name": "bn2b_branch2b", "config": {"beta_initializer": {"config": {}, "class_name": "Zeros"}, "gamma_constraint": null, "gamma_regularizer": null, "beta_regularizer": null, "epsilon": 0.001, "beta_constraint": null, "name": "bn2b_branch2b", "momentum": 0.99, "center": true, "trainable": true, "moving_variance_initializer": {"config": {}, "class_name": "Ones"}, "axis": 3, "scale": true, "gamma_initializer": {"config": {}, "class_name": "Ones"}, "moving_mean_initializer": {"config": {}, "class_name": "Zeros"}}, "class_name": "BatchNormalization", "inbound_nodes": [[["res2b_branch2b", 0, 0, {}]]]}, {"name": "activation_6", "config": {"name": "activation_6", "trainable": true, "activation": "relu"}, "class_name": "Activation", "inbound_nodes": [[["bn2b_branch2b", 0, 0, {}]]]}, {"name": "res2b_branch2c", "config": {"bias_regularizer": null, "filters": 256, "padding": "valid", "bias_constraint": null, "strides": [1, 1], "name": "res2b_branch2c", "use_bias": true, "activity_regularizer": null, "bias_initializer": {"config": {}, "class_name": "Zeros"}, "kernel_size": [1, 1], "trainable": true, "data_format": "channels_last", "kernel_regularizer": null, "dilation_rate": [1, 1], "kernel_constraint": null, "kernel_initializer": {"config": {"distribution": "normal", "mode": "fan_in", "seed": null, "scale": 2.0}, "class_name": "VarianceScaling"}, "activation": "linear"}, "class_name": "Conv2D", "inbound_nodes": [[["activation_6", 0, 0, {}]]]}, {"name": "bn2b_branch2c", "config": {"beta_initializer": {"config": {}, "class_name": "Zeros"}, "gamma_constraint": null, "gamma_regularizer": null, "beta_regularizer": null, "epsilon": 0.001, "beta_constraint": null, "name": "bn2b_branch2c", "momentum": 0.99, "center": true, "trainable": true, "moving_variance_initializer": {"config": {}, "class_name": "Ones"}, "axis": 3, "scale": true, "gamma_initializer": {"config": {}, "class_name": "Ones"}, "moving_mean_initializer": {"config": {}, "class_name": "Zeros"}}, "class_name": "BatchNormalization", "inbound_nodes": [[["res2b_branch2c", 0, 0, {}]]]}, {"name": "add_2", "config": {"name": "add_2", "trainable": true}, "class_name": "Add", "inbound_nodes": [[["bn2b_branch2c", 0, 0, {}], ["activation_4", 0, 0, {}]]]}, {"name": "activation_7", "config": {"name": "activation_7", "trainable": true, "activation": "relu"}, "class_name": "Activation", "inbound_nodes": [[["add_2", 0, 0, {}]]]}, {"name": "res2c_branch2a", "config": {"bias_regularizer": null, "filters": 64, "padding": "valid", "bias_constraint": null, "strides": [1, 1], "name": "res2c_branch2a", "use_bias": true, "activity_regularizer": null, "bias_initializer": {"config": {}, "class_name": "Zeros"}, "kernel_size": [1, 1], "trainable": true, "data_format": "channels_last", "kernel_regularizer": null, "dilation_rate": [1, 1], "kernel_constraint": null, "kernel_initializer": {"config": {"distribution": "normal", "mode": "fan_in", "seed": null, "scale": 2.0}, "class_name": "VarianceScaling"}, "activation": "linear"}, "class_name": "Conv2D", "inbound_nodes": [[["activation_7", 0, 0, {}]]]}, {"name": "bn2c_branch2a", "config": {"beta_initializer": {"config": {}, "class_name": "Zeros"}, "gamma_constraint": null, "gamma_regularizer": null, "beta_regularizer": null, "epsilon": 0.001, "beta_constraint": null, "name": "bn2c_branch2a", "momentum": 0.99, "center": true, "trainable": true, "moving_variance_initializer": {"config": {}, "class_name": "Ones"}, "axis": 3, "scale": true, "gamma_initializer": {"config": {}, "class_name": "Ones"}, "moving_mean_initializer": {"config": {}, "class_name": "Zeros"}}, "class_name": "BatchNormalization", "inbound_nodes": [[["res2c_branch2a", 0, 0, {}]]]}, {"name": "activation_8", "config": {"name": "activation_8", "trainable": true, "activation": "relu"}, "class_name": "Activation", "inbound_nodes": [[["bn2c_branch2a", 0, 0, {}]]]}, {"name": "res2c_branch2b", "config": {"bias_regularizer": null, "filters": 64, "padding": "same", "bias_constraint": null, "strides": [1, 1], "name": "res2c_branch2b", "use_bias": true, "activity_regularizer": null, "bias_initializer": {"config": {}, "class_name": "Zeros"}, "kernel_size": [3, 3], "trainable": true, "data_format": "channels_last", "kernel_regularizer": null, "dilation_rate": [1, 1], "kernel_constraint": null, "kernel_initializer": {"config": {"distribution": "normal", "mode": "fan_in", "seed": null, "scale": 2.0}, "class_name": "VarianceScaling"}, "activation": "linear"}, "class_name": "Conv2D", "inbound_nodes": [[["activation_8", 0, 0, {}]]]}, {"name": "bn2c_branch2b", "config": {"beta_initializer": {"config": {}, "class_name": "Zeros"}, "gamma_constraint": null, "gamma_regularizer": null, "beta_regularizer": null, "epsilon": 0.001, "beta_constraint": null, "name": "bn2c_branch2b", "momentum": 0.99, "center": true, "trainable": true, "moving_variance_initializer": {"config": {}, "class_name": "Ones"}, "axis": 3, "scale": true, "gamma_initializer": {"config": {}, "class_name": "Ones"}, "moving_mean_initializer": {"config": {}, "class_name": "Zeros"}}, "class_name": "BatchNormalization", "inbound_nodes": [[["res2c_branch2b", 0, 0, {}]]]}, {"name": "activation_9", "config": {"name": "activation_9", "trainable": true, "activation": "relu"}, "class_name": "Activation", "inbound_nodes": [[["bn2c_branch2b", 0, 0, {}]]]}, {"name": "res2c_branch2c", "config": {"bias_regularizer": null, "filters": 256, "padding": "valid", "bias_constraint": null, "strides": [1, 1], "name": "res2c_branch2c", "use_bias": true, "activity_regularizer": null, "bias_initializer": {"config": {}, "class_name": "Zeros"}, "kernel_size": [1, 1], "trainable": true, "data_format": "channels_last", "kernel_regularizer": null, "dilation_rate": [1, 1], "kernel_constraint": null, "kernel_initializer": {"config": {"distribution": "normal", "mode": "fan_in", "seed": null, "scale": 2.0}, "class_name": "VarianceScaling"}, "activation": "linear"}, "class_name": "Conv2D", "inbound_nodes": [[["activation_9", 0, 0, {}]]]}, {"name": "bn2c_branch2c", "config": {"beta_initializer": {"config": {}, "class_name": "Zeros"}, "gamma_constraint": null, "gamma_regularizer": null, "beta_regularizer": null, "epsilon": 0.001, "beta_constraint": null, "name": "bn2c_branch2c", "momentum": 0.99, "center": true, "trainable": true, "moving_variance_initializer": {"config": {}, "class_name": "Ones"}, "axis": 3, "scale": true, "gamma_initializer": {"config": {}, "class_name": "Ones"}, "moving_mean_initializer": {"config": {}, "class_name": "Zeros"}}, "class_name": "BatchNormalization", "inbound_nodes": [[["res2c_branch2c", 0, 0, {}]]]}, {"name": "add_3", "config": {"name": "add_3", "trainable": true}, "class_name": "Add", "inbound_nodes": [[["bn2c_branch2c", 0, 0, {}], ["activation_7", 0, 0, {}]]]}, {"name": "activation_10", "config": {"name": "activation_10", "trainable": true, "activation": "relu"}, "class_name": "Activation", "inbound_nodes": [[["add_3", 0, 0, {}]]]}, {"name": "res3a_branch2a", "config": {"bias_regularizer": null, "filters": 128, "padding": "valid", "bias_constraint": null, "strides": [2, 2], "name": "res3a_branch2a", "use_bias": true, "activity_regularizer": null, "bias_initializer": {"config": {}, "class_name": "Zeros"}, "kernel_size": [1, 1], "trainable": true, "data_format": "channels_last", "kernel_regularizer": null, "dilation_rate": [1, 1], "kernel_constraint": null, "kernel_initializer": {"config": {"distribution": "normal", "mode": "fan_in", "seed": null, "scale": 2.0}, "class_name": "VarianceScaling"}, "activation": "linear"}, "class_name": "Conv2D", "inbound_nodes": [[["activation_10", 0, 0, {}]]]}, {"name": "bn3a_branch2a", "config": {"beta_initializer": {"config": {}, "class_name": "Zeros"}, "gamma_constraint": null, "gamma_regularizer": null, "beta_regularizer": null, "epsilon": 0.001, "beta_constraint": null, "name": "bn3a_branch2a", "momentum": 0.99, "center": true, "trainable": true, "moving_variance_initializer": {"config": {}, "class_name": "Ones"}, "axis": 3, "scale": true, "gamma_initializer": {"config": {}, "class_name": "Ones"}, "moving_mean_initializer": {"config": {}, "class_name": "Zeros"}}, "class_name": "BatchNormalization", "inbound_nodes": [[["res3a_branch2a", 0, 0, {}]]]}, {"name": "activation_11", "config": {"name": "activation_11", "trainable": true, "activation": "relu"}, "class_name": "Activation", "inbound_nodes": [[["bn3a_branch2a", 0, 0, {}]]]}, {"name": "res3a_branch2b", "config": {"bias_regularizer": null, "filters": 128, "padding": "same", "bias_constraint": null, "strides": [1, 1], "name": "res3a_branch2b", "use_bias": true, "activity_regularizer": null, "bias_initializer": {"config": {}, "class_name": "Zeros"}, "kernel_size": [3, 3], "trainable": true, "data_format": "channels_last", "kernel_regularizer": null, "dilation_rate": [1, 1], "kernel_constraint": null, "kernel_initializer": {"config": {"distribution": "normal", "mode": "fan_in", "seed": null, "scale": 2.0}, "class_name": "VarianceScaling"}, "activation": "linear"}, "class_name": "Conv2D", "inbound_nodes": [[["activation_11", 0, 0, {}]]]}, {"name": "bn3a_branch2b", "config": {"beta_initializer": {"config": {}, "class_name": "Zeros"}, "gamma_constraint": null, "gamma_regularizer": null, "beta_regularizer": null, "epsilon": 0.001, "beta_constraint": null, "name": "bn3a_branch2b", "momentum": 0.99, "center": true, "trainable": true, "moving_variance_initializer": {"config": {}, "class_name": "Ones"}, "axis": 3, "scale": true, "gamma_initializer": {"config": {}, "class_name": "Ones"}, "moving_mean_initializer": {"config": {}, "class_name": "Zeros"}}, "class_name": "BatchNormalization", "inbound_nodes": [[["res3a_branch2b", 0, 0, {}]]]}, {"name": "activation_12", "config": {"name": "activation_12", "trainable": true, "activation": "relu"}, "class_name": "Activation", "inbound_nodes": [[["bn3a_branch2b", 0, 0, {}]]]}, {"name": "res3a_branch2c", "config": {"bias_regularizer": null, "filters": 512, "padding": "valid", "bias_constraint": null, "strides": [1, 1], "name": "res3a_branch2c", "use_bias": true, "activity_regularizer": null, "bias_initializer": {"config": {}, "class_name": "Zeros"}, "kernel_size": [1, 1], "trainable": true, "data_format": "channels_last", "kernel_regularizer": null, "dilation_rate": [1, 1], "kernel_constraint": null, "kernel_initializer": {"config": {"distribution": "normal", "mode": "fan_in", "seed": null, "scale": 2.0}, "class_name": "VarianceScaling"}, "activation": "linear"}, "class_name": "Conv2D", "inbound_nodes": [[["activation_12", 0, 0, {}]]]}, {"name": "res3a_branch1", "config": {"bias_regularizer": null, "filters": 512, "padding": "valid", "bias_constraint": null, "strides": [2, 2], "name": "res3a_branch1", "use_bias": true, "activity_regularizer": null, "bias_initializer": {"config": {}, "class_name": "Zeros"}, "kernel_size": [1, 1], "trainable": true, "data_format": "channels_last", "kernel_regularizer": null, "dilation_rate": [1, 1], "kernel_constraint": null, "kernel_initializer": {"config": {"distribution": "normal", "mode": "fan_in", "seed": null, "scale": 2.0}, "class_name": "VarianceScaling"}, "activation": "linear"}, "class_name": "Conv2D", "inbound_nodes": [[["activation_10", 0, 0, {}]]]}, {"name": "bn3a_branch2c", "config": {"beta_initializer": {"config": {}, "class_name": "Zeros"}, "gamma_constraint": null, "gamma_regularizer": null, "beta_regularizer": null, "epsilon": 0.001, "beta_constraint": null, "name": "bn3a_branch2c", "momentum": 0.99, "center": true, "trainable": true, "moving_variance_initializer": {"config": {}, "class_name": "Ones"}, "axis": 3, "scale": true, "gamma_initializer": {"config": {}, "class_name": "Ones"}, "moving_mean_initializer": {"config": {}, "class_name": "Zeros"}}, "class_name": "BatchNormalization", "inbound_nodes": [[["res3a_branch2c", 0, 0, {}]]]}, {"name": "bn3a_branch1", "config": {"beta_initializer": {"config": {}, "class_name": "Zeros"}, "gamma_constraint": null, "gamma_regularizer": null, "beta_regularizer": null, "epsilon": 0.001, "beta_constraint": null, "name": "bn3a_branch1", "momentum": 0.99, "center": true, "trainable": true, "moving_variance_initializer": {"config": {}, "class_name": "Ones"}, "axis": 3, "scale": true, "gamma_initializer": {"config": {}, "class_name": "Ones"}, "moving_mean_initializer": {"config": {}, "class_name": "Zeros"}}, "class_name": "BatchNormalization", "inbound_nodes": [[["res3a_branch1", 0, 0, {}]]]}, {"name": "add_4", "config": {"name": "add_4", "trainable": true}, "class_name": "Add", "inbound_nodes": [[["bn3a_branch2c", 0, 0, {}], ["bn3a_branch1", 0, 0, {}]]]}, {"name": "activation_13", "config": {"name": "activation_13", "trainable": true, "activation": "relu"}, "class_name": "Activation", "inbound_nodes": [[["add_4", 0, 0, {}]]]}, {"name": "res3b_branch2a", "config": {"bias_regularizer": null, "filters": 128, "padding": "valid", "bias_constraint": null, "strides": [1, 1], "name": "res3b_branch2a", "use_bias": true, "activity_regularizer": null, "bias_initializer": {"config": {}, "class_name": "Zeros"}, "kernel_size": [1, 1], "trainable": true, "data_format": "channels_last", "kernel_regularizer": null, "dilation_rate": [1, 1], "kernel_constraint": null, "kernel_initializer": {"config": {"distribution": "normal", "mode": "fan_in", "seed": null, "scale": 2.0}, "class_name": "VarianceScaling"}, "activation": "linear"}, "class_name": "Conv2D", "inbound_nodes": [[["activation_13", 0, 0, {}]]]}, {"name": "bn3b_branch2a", "config": {"beta_initializer": {"config": {}, "class_name": "Zeros"}, "gamma_constraint": null, "gamma_regularizer": null, "beta_regularizer": null, "epsilon": 0.001, "beta_constraint": null, "name": "bn3b_branch2a", "momentum": 0.99, "center": true, "trainable": true, "moving_variance_initializer": {"config": {}, "class_name": "Ones"}, "axis": 3, "scale": true, "gamma_initializer": {"config": {}, "class_name": "Ones"}, "moving_mean_initializer": {"config": {}, "class_name": "Zeros"}}, "class_name": "BatchNormalization", "inbound_nodes": [[["res3b_branch2a", 0, 0, {}]]]}, {"name": "activation_14", "config": {"name": "activation_14", "trainable": true, "activation": "relu"}, "class_name": "Activation", "inbound_nodes": [[["bn3b_branch2a", 0, 0, {}]]]}, {"name": "res3b_branch2b", "config": {"bias_regularizer": null, "filters": 128, "padding": "same", "bias_constraint": null, "strides": [1, 1], "name": "res3b_branch2b", "use_bias": true, "activity_regularizer": null, "bias_initializer": {"config": {}, "class_name": "Zeros"}, "kernel_size": [3, 3], "trainable": true, "data_format": "channels_last", "kernel_regularizer": null, "dilation_rate": [1, 1], "kernel_constraint": null, "kernel_initializer": {"config": {"distribution": "normal", "mode": "fan_in", "seed": null, "scale": 2.0}, "class_name": "VarianceScaling"}, "activation": "linear"}, "class_name": "Conv2D", "inbound_nodes": [[["activation_14", 0, 0, {}]]]}, {"name": "bn3b_branch2b", "config": {"beta_initializer": {"config": {}, "class_name": "Zeros"}, "gamma_constraint": null, "gamma_regularizer": null, "beta_regularizer": null, "epsilon": 0.001, "beta_constraint": null, "name": "bn3b_branch2b", "momentum": 0.99, "center": true, "trainable": true, "moving_variance_initializer": {"config": {}, "class_name": "Ones"}, "axis": 3, "scale": true, "gamma_initializer": {"config": {}, "class_name": "Ones"}, "moving_mean_initializer": {"config": {}, "class_name": "Zeros"}}, "class_name": "BatchNormalization", "inbound_nodes": [[["res3b_branch2b", 0, 0, {}]]]}, {"name": "activation_15", "config": {"name": "activation_15", "trainable": true, "activation": "relu"}, "class_name": "Activation", "inbound_nodes": [[["bn3b_branch2b", 0, 0, {}]]]}, {"name": "res3b_branch2c", "config": {"bias_regularizer": null, "filters": 512, "padding": "valid", "bias_constraint": null, "strides": [1, 1], "name": "res3b_branch2c", "use_bias": true, "activity_regularizer": null, "bias_initializer": {"config": {}, "class_name": "Zeros"}, "kernel_size": [1, 1], "trainable": true, "data_format": "channels_last", "kernel_regularizer": null, "dilation_rate": [1, 1], "kernel_constraint": null, "kernel_initializer": {"config": {"distribution": "normal", "mode": "fan_in", "seed": null, "scale": 2.0}, "class_name": "VarianceScaling"}, "activation": "linear"}, "class_name": "Conv2D", "inbound_nodes": [[["activation_15", 0, 0, {}]]]}, {"name": "bn3b_branch2c", "config": {"beta_initializer": {"config": {}, "class_name": "Zeros"}, "gamma_constraint": null, "gamma_regularizer": null, "beta_regularizer": null, "epsilon": 0.001, "beta_constraint": null, "name": "bn3b_branch2c", "momentum": 0.99, "center": true, "trainable": true, "moving_variance_initializer": {"config": {}, "class_name": "Ones"}, "axis": 3, "scale": true, "gamma_initializer": {"config": {}, "class_name": "Ones"}, "moving_mean_initializer": {"config": {}, "class_name": "Zeros"}}, "class_name": "BatchNormalization", "inbound_nodes": [[["res3b_branch2c", 0, 0, {}]]]}, {"name": "add_5", "config": {"name": "add_5", "trainable": true}, "class_name": "Add", "inbound_nodes": [[["bn3b_branch2c", 0, 0, {}], ["activation_13", 0, 0, {}]]]}, {"name": "activation_16", "config": {"name": "activation_16", "trainable": true, "activation": "relu"}, "class_name": "Activation", "inbound_nodes": [[["add_5", 0, 0, {}]]]}, {"name": "res3c_branch2a", "config": {"bias_regularizer": null, "filters": 128, "padding": "valid", "bias_constraint": null, "strides": [1, 1], "name": "res3c_branch2a", "use_bias": true, "activity_regularizer": null, "bias_initializer": {"config": {}, "class_name": "Zeros"}, "kernel_size": [1, 1], "trainable": true, "data_format": "channels_last", "kernel_regularizer": null, "dilation_rate": [1, 1], "kernel_constraint": null, "kernel_initializer": {"config": {"distribution": "normal", "mode": "fan_in", "seed": null, "scale": 2.0}, "class_name": "VarianceScaling"}, "activation": "linear"}, "class_name": "Conv2D", "inbound_nodes": [[["activation_16", 0, 0, {}]]]}, {"name": "bn3c_branch2a", "config": {"beta_initializer": {"config": {}, "class_name": "Zeros"}, "gamma_constraint": null, "gamma_regularizer": null, "beta_regularizer": null, "epsilon": 0.001, "beta_constraint": null, "name": "bn3c_branch2a", "momentum": 0.99, "center": true, "trainable": true, "moving_variance_initializer": {"config": {}, "class_name": "Ones"}, "axis": 3, "scale": true, "gamma_initializer": {"config": {}, "class_name": "Ones"}, "moving_mean_initializer": {"config": {}, "class_name": "Zeros"}}, "class_name": "BatchNormalization", "inbound_nodes": [[["res3c_branch2a", 0, 0, {}]]]}, {"name": "activation_17", "config": {"name": "activation_17", "trainable": true, "activation": "relu"}, "class_name": "Activation", "inbound_nodes": [[["bn3c_branch2a", 0, 0, {}]]]}, {"name": "res3c_branch2b", "config": {"bias_regularizer": null, "filters": 128, "padding": "same", "bias_constraint": null, "strides": [1, 1], "name": "res3c_branch2b", "use_bias": true, "activity_regularizer": null, "bias_initializer": {"config": {}, "class_name": "Zeros"}, "kernel_size": [3, 3], "trainable": true, "data_format": "channels_last", "kernel_regularizer": null, "dilation_rate": [1, 1], "kernel_constraint": null, "kernel_initializer": {"config": {"distribution": "normal", "mode": "fan_in", "seed": null, "scale": 2.0}, "class_name": "VarianceScaling"}, "activation": "linear"}, "class_name": "Conv2D", "inbound_nodes": [[["activation_17", 0, 0, {}]]]}, {"name": "bn3c_branch2b", "config": {"beta_initializer": {"config": {}, "class_name": "Zeros"}, "gamma_constraint": null, "gamma_regularizer": null, "beta_regularizer": null, "epsilon": 0.001, "beta_constraint": null, "name": "bn3c_branch2b", "momentum": 0.99, "center": true, "trainable": true, "moving_variance_initializer": {"config": {}, "class_name": "Ones"}, "axis": 3, "scale": true, "gamma_initializer": {"config": {}, "class_name": "Ones"}, "moving_mean_initializer": {"config": {}, "class_name": "Zeros"}}, "class_name": "BatchNormalization", "inbound_nodes": [[["res3c_branch2b", 0, 0, {}]]]}, {"name": "activation_18", "config": {"name": "activation_18", "trainable": true, "activation": "relu"}, "class_name": "Activation", "inbound_nodes": [[["bn3c_branch2b", 0, 0, {}]]]}, {"name": "res3c_branch2c", "config": {"bias_regularizer": null, "filters": 512, "padding": "valid", "bias_constraint": null, "strides": [1, 1], "name": "res3c_branch2c", "use_bias": true, "activity_regularizer": null, "bias_initializer": {"config": {}, "class_name": "Zeros"}, "kernel_size": [1, 1], "trainable": true, "data_format": "channels_last", "kernel_regularizer": null, "dilation_rate": [1, 1], "kernel_constraint": null, "kernel_initializer": {"config": {"distribution": "normal", "mode": "fan_in", "seed": null, "scale": 2.0}, "class_name": "VarianceScaling"}, "activation": "linear"}, "class_name": "Conv2D", "inbound_nodes": [[["activation_18", 0, 0, {}]]]}, {"name": "bn3c_branch2c", "config": {"beta_initializer": {"config": {}, "class_name": "Zeros"}, "gamma_constraint": null, "gamma_regularizer": null, "beta_regularizer": null, "epsilon": 0.001, "beta_constraint": null, "name": "bn3c_branch2c", "momentum": 0.99, "center": true, "trainable": true, "moving_variance_initializer": {"config": {}, "class_name": "Ones"}, "axis": 3, "scale": true, "gamma_initializer": {"config": {}, "class_name": "Ones"}, "moving_mean_initializer": {"config": {}, "class_name": "Zeros"}}, "class_name": "BatchNormalization", "inbound_nodes": [[["res3c_branch2c", 0, 0, {}]]]}, {"name": "add_6", "config": {"name": "add_6", "trainable": true}, "class_name": "Add", "inbound_nodes": [[["bn3c_branch2c", 0, 0, {}], ["activation_16", 0, 0, {}]]]}, {"name": "activation_19", "config": {"name": "activation_19", "trainable": true, "activation": "relu"}, "class_name": "Activation", "inbound_nodes": [[["add_6", 0, 0, {}]]]}, {"name": "res3d_branch2a", "config": {"bias_regularizer": null, "filters": 128, "padding": "valid", "bias_constraint": null, "strides": [1, 1], "name": "res3d_branch2a", "use_bias": true, "activity_regularizer": null, "bias_initializer": {"config": {}, "class_name": "Zeros"}, "kernel_size": [1, 1], "trainable": true, "data_format": "channels_last", "kernel_regularizer": null, "dilation_rate": [1, 1], "kernel_constraint": null, "kernel_initializer": {"config": {"distribution": "normal", "mode": "fan_in", "seed": null, "scale": 2.0}, "class_name": "VarianceScaling"}, "activation": "linear"}, "class_name": "Conv2D", "inbound_nodes": [[["activation_19", 0, 0, {}]]]}, {"name": "bn3d_branch2a", "config": {"beta_initializer": {"config": {}, "class_name": "Zeros"}, "gamma_constraint": null, "gamma_regularizer": null, "beta_regularizer": null, "epsilon": 0.001, "beta_constraint": null, "name": "bn3d_branch2a", "momentum": 0.99, "center": true, "trainable": true, "moving_variance_initializer": {"config": {}, "class_name": "Ones"}, "axis": 3, "scale": true, "gamma_initializer": {"config": {}, "class_name": "Ones"}, "moving_mean_initializer": {"config": {}, "class_name": "Zeros"}}, "class_name": "BatchNormalization", "inbound_nodes": [[["res3d_branch2a", 0, 0, {}]]]}, {"name": "activation_20", "config": {"name": "activation_20", "trainable": true, "activation": "relu"}, "class_name": "Activation", "inbound_nodes": [[["bn3d_branch2a", 0, 0, {}]]]}, {"name": "res3d_branch2b", "config": {"bias_regularizer": null, "filters": 128, "padding": "same", "bias_constraint": null, "strides": [1, 1], "name": "res3d_branch2b", "use_bias": true, "activity_regularizer": null, "bias_initializer": {"config": {}, "class_name": "Zeros"}, "kernel_size": [3, 3], "trainable": true, "data_format": "channels_last", "kernel_regularizer": null, "dilation_rate": [1, 1], "kernel_constraint": null, "kernel_initializer": {"config": {"distribution": "normal", "mode": "fan_in", "seed": null, "scale": 2.0}, "class_name": "VarianceScaling"}, "activation": "linear"}, "class_name": "Conv2D", "inbound_nodes": [[["activation_20", 0, 0, {}]]]}, {"name": "bn3d_branch2b", "config": {"beta_initializer": {"config": {}, "class_name": "Zeros"}, "gamma_constraint": null, "gamma_regularizer": null, "beta_regularizer": null, "epsilon": 0.001, "beta_constraint": null, "name": "bn3d_branch2b", "momentum": 0.99, "center": true, "trainable": true, "moving_variance_initializer": {"config": {}, "class_name": "Ones"}, "axis": 3, "scale": true, "gamma_initializer": {"config": {}, "class_name": "Ones"}, "moving_mean_initializer": {"config": {}, "class_name": "Zeros"}}, "class_name": "BatchNormalization", "inbound_nodes": [[["res3d_branch2b", 0, 0, {}]]]}, {"name": "activation_21", "config": {"name": "activation_21", "trainable": true, "activation": "relu"}, "class_name": "Activation", "inbound_nodes": [[["bn3d_branch2b", 0, 0, {}]]]}, {"name": "res3d_branch2c", "config": {"bias_regularizer": null, "filters": 512, "padding": "valid", "bias_constraint": null, "strides": [1, 1], "name": "res3d_branch2c", "use_bias": true, "activity_regularizer": null, "bias_initializer": {"config": {}, "class_name": "Zeros"}, "kernel_size": [1, 1], "trainable": true, "data_format": "channels_last", "kernel_regularizer": null, "dilation_rate": [1, 1], "kernel_constraint": null, "kernel_initializer": {"config": {"distribution": "normal", "mode": "fan_in", "seed": null, "scale": 2.0}, "class_name": "VarianceScaling"}, "activation": "linear"}, "class_name": "Conv2D", "inbound_nodes": [[["activation_21", 0, 0, {}]]]}, {"name": "bn3d_branch2c", "config": {"beta_initializer": {"config": {}, "class_name": "Zeros"}, "gamma_constraint": null, "gamma_regularizer": null, "beta_regularizer": null, "epsilon": 0.001, "beta_constraint": null, "name": "bn3d_branch2c", "momentum": 0.99, "center": true, "trainable": true, "moving_variance_initializer": {"config": {}, "class_name": "Ones"}, "axis": 3, "scale": true, "gamma_initializer": {"config": {}, "class_name": "Ones"}, "moving_mean_initializer": {"config": {}, "class_name": "Zeros"}}, "class_name": "BatchNormalization", "inbound_nodes": [[["res3d_branch2c", 0, 0, {}]]]}, {"name": "add_7", "config": {"name": "add_7", "trainable": true}, "class_name": "Add", "inbound_nodes": [[["bn3d_branch2c", 0, 0, {}], ["activation_19", 0, 0, {}]]]}, {"name": "activation_22", "config": {"name": "activation_22", "trainable": true, "activation": "relu"}, "class_name": "Activation", "inbound_nodes": [[["add_7", 0, 0, {}]]]}, {"name": "res4a_branch2a", "config": {"bias_regularizer": null, "filters": 256, "padding": "valid", "bias_constraint": null, "strides": [2, 2], "name": "res4a_branch2a", "use_bias": true, "activity_regularizer": null, "bias_initializer": {"config": {}, "class_name": "Zeros"}, "kernel_size": [1, 1], "trainable": true, "data_format": "channels_last", "kernel_regularizer": null, "dilation_rate": [1, 1], "kernel_constraint": null, "kernel_initializer": {"config": {"distribution": "normal", "mode": "fan_in", "seed": null, "scale": 2.0}, "class_name": "VarianceScaling"}, "activation": "linear"}, "class_name": "Conv2D", "inbound_nodes": [[["activation_22", 0, 0, {}]]]}, {"name": "bn4a_branch2a", "config": {"beta_initializer": {"config": {}, "class_name": "Zeros"}, "gamma_constraint": null, "gamma_regularizer": null, "beta_regularizer": null, "epsilon": 0.001, "beta_constraint": null, "name": "bn4a_branch2a", "momentum": 0.99, "center": true, "trainable": true, "moving_variance_initializer": {"config": {}, "class_name": "Ones"}, "axis": 3, "scale": true, "gamma_initializer": {"config": {}, "class_name": "Ones"}, "moving_mean_initializer": {"config": {}, "class_name": "Zeros"}}, "class_name": "BatchNormalization", "inbound_nodes": [[["res4a_branch2a", 0, 0, {}]]]}, {"name": "activation_23", "config": {"name": "activation_23", "trainable": true, "activation": "relu"}, "class_name": "Activation", "inbound_nodes": [[["bn4a_branch2a", 0, 0, {}]]]}, {"name": "res4a_branch2b", "config": {"bias_regularizer": null, "filters": 256, "padding": "same", "bias_constraint": null, "strides": [1, 1], "name": "res4a_branch2b", "use_bias": true, "activity_regularizer": null, "bias_initializer": {"config": {}, "class_name": "Zeros"}, "kernel_size": [3, 3], "trainable": true, "data_format": "channels_last", "kernel_regularizer": null, "dilation_rate": [1, 1], "kernel_constraint": null, "kernel_initializer": {"config": {"distribution": "normal", "mode": "fan_in", "seed": null, "scale": 2.0}, "class_name": "VarianceScaling"}, "activation": "linear"}, "class_name": "Conv2D", "inbound_nodes": [[["activation_23", 0, 0, {}]]]}, {"name": "bn4a_branch2b", "config": {"beta_initializer": {"config": {}, "class_name": "Zeros"}, "gamma_constraint": null, "gamma_regularizer": null, "beta_regularizer": null, "epsilon": 0.001, "beta_constraint": null, "name": "bn4a_branch2b", "momentum": 0.99, "center": true, "trainable": true, "moving_variance_initializer": {"config": {}, "class_name": "Ones"}, "axis": 3, "scale": true, "gamma_initializer": {"config": {}, "class_name": "Ones"}, "moving_mean_initializer": {"config": {}, "class_name": "Zeros"}}, "class_name": "BatchNormalization", "inbound_nodes": [[["res4a_branch2b", 0, 0, {}]]]}, {"name": "activation_24", "config": {"name": "activation_24", "trainable": true, "activation": "relu"}, "class_name": "Activation", "inbound_nodes": [[["bn4a_branch2b", 0, 0, {}]]]}, {"name": "res4a_branch2c", "config": {"bias_regularizer": null, "filters": 1024, "padding": "valid", "bias_constraint": null, "strides": [1, 1], "name": "res4a_branch2c", "use_bias": true, "activity_regularizer": null, "bias_initializer": {"config": {}, "class_name": "Zeros"}, "kernel_size": [1, 1], "trainable": true, "data_format": "channels_last", "kernel_regularizer": null, "dilation_rate": [1, 1], "kernel_constraint": null, "kernel_initializer": {"config": {"distribution": "normal", "mode": "fan_in", "seed": null, "scale": 2.0}, "class_name": "VarianceScaling"}, "activation": "linear"}, "class_name": "Conv2D", "inbound_nodes": [[["activation_24", 0, 0, {}]]]}, {"name": "res4a_branch1", "config": {"bias_regularizer": null, "filters": 1024, "padding": "valid", "bias_constraint": null, "strides": [2, 2], "name": "res4a_branch1", "use_bias": true, "activity_regularizer": null, "bias_initializer": {"config": {}, "class_name": "Zeros"}, "kernel_size": [1, 1], "trainable": true, "data_format": "channels_last", "kernel_regularizer": null, "dilation_rate": [1, 1], "kernel_constraint": null, "kernel_initializer": {"config": {"distribution": "normal", "mode": "fan_in", "seed": null, "scale": 2.0}, "class_name": "VarianceScaling"}, "activation": "linear"}, "class_name": "Conv2D", "inbound_nodes": [[["activation_22", 0, 0, {}]]]}, {"name": "bn4a_branch2c", "config": {"beta_initializer": {"config": {}, "class_name": "Zeros"}, "gamma_constraint": null, "gamma_regularizer": null, "beta_regularizer": null, "epsilon": 0.001, "beta_constraint": null, "name": "bn4a_branch2c", "momentum": 0.99, "center": true, "trainable": true, "moving_variance_initializer": {"config": {}, "class_name": "Ones"}, "axis": 3, "scale": true, "gamma_initializer": {"config": {}, "class_name": "Ones"}, "moving_mean_initializer": {"config": {}, "class_name": "Zeros"}}, "class_name": "BatchNormalization", "inbound_nodes": [[["res4a_branch2c", 0, 0, {}]]]}, {"name": "bn4a_branch1", "config": {"beta_initializer": {"config": {}, "class_name": "Zeros"}, "gamma_constraint": null, "gamma_regularizer": null, "beta_regularizer": null, "epsilon": 0.001, "beta_constraint": null, "name": "bn4a_branch1", "momentum": 0.99, "center": true, "trainable": true, "moving_variance_initializer": {"config": {}, "class_name": "Ones"}, "axis": 3, "scale": true, "gamma_initializer": {"config": {}, "class_name": "Ones"}, "moving_mean_initializer": {"config": {}, "class_name": "Zeros"}}, "class_name": "BatchNormalization", "inbound_nodes": [[["res4a_branch1", 0, 0, {}]]]}, {"name": "add_8", "config": {"name": "add_8", "trainable": true}, "class_name": "Add", "inbound_nodes": [[["bn4a_branch2c", 0, 0, {}], ["bn4a_branch1", 0, 0, {}]]]}, {"name": "activation_25", "config": {"name": "activation_25", "trainable": true, "activation": "relu"}, "class_name": "Activation", "inbound_nodes": [[["add_8", 0, 0, {}]]]}, {"name": "res4b_branch2a", "config": {"bias_regularizer": null, "filters": 256, "padding": "valid", "bias_constraint": null, "strides": [1, 1], "name": "res4b_branch2a", "use_bias": true, "activity_regularizer": null, "bias_initializer": {"config": {}, "class_name": "Zeros"}, "kernel_size": [1, 1], "trainable": true, "data_format": "channels_last", "kernel_regularizer": null, "dilation_rate": [1, 1], "kernel_constraint": null, "kernel_initializer": {"config": {"distribution": "normal", "mode": "fan_in", "seed": null, "scale": 2.0}, "class_name": "VarianceScaling"}, "activation": "linear"}, "class_name": "Conv2D", "inbound_nodes": [[["activation_25", 0, 0, {}]]]}, {"name": "bn4b_branch2a", "config": {"beta_initializer": {"config": {}, "class_name": "Zeros"}, "gamma_constraint": null, "gamma_regularizer": null, "beta_regularizer": null, "epsilon": 0.001, "beta_constraint": null, "name": "bn4b_branch2a", "momentum": 0.99, "center": true, "trainable": true, "moving_variance_initializer": {"config": {}, "class_name": "Ones"}, "axis": 3, "scale": true, "gamma_initializer": {"config": {}, "class_name": "Ones"}, "moving_mean_initializer": {"config": {}, "class_name": "Zeros"}}, "class_name": "BatchNormalization", "inbound_nodes": [[["res4b_branch2a", 0, 0, {}]]]}, {"name": "activation_26", "config": {"name": "activation_26", "trainable": true, "activation": "relu"}, "class_name": "Activation", "inbound_nodes": [[["bn4b_branch2a", 0, 0, {}]]]}, {"name": "res4b_branch2b", "config": {"bias_regularizer": null, "filters": 256, "padding": "same", "bias_constraint": null, "strides": [1, 1], "name": "res4b_branch2b", "use_bias": true, "activity_regularizer": null, "bias_initializer": {"config": {}, "class_name": "Zeros"}, "kernel_size": [3, 3], "trainable": true, "data_format": "channels_last", "kernel_regularizer": null, "dilation_rate": [1, 1], "kernel_constraint": null, "kernel_initializer": {"config": {"distribution": "normal", "mode": "fan_in", "seed": null, "scale": 2.0}, "class_name": "VarianceScaling"}, "activation": "linear"}, "class_name": "Conv2D", "inbound_nodes": [[["activation_26", 0, 0, {}]]]}, {"name": "bn4b_branch2b", "config": {"beta_initializer": {"config": {}, "class_name": "Zeros"}, "gamma_constraint": null, "gamma_regularizer": null, "beta_regularizer": null, "epsilon": 0.001, "beta_constraint": null, "name": "bn4b_branch2b", "momentum": 0.99, "center": true, "trainable": true, "moving_variance_initializer": {"config": {}, "class_name": "Ones"}, "axis": 3, "scale": true, "gamma_initializer": {"config": {}, "class_name": "Ones"}, "moving_mean_initializer": {"config": {}, "class_name": "Zeros"}}, "class_name": "BatchNormalization", "inbound_nodes": [[["res4b_branch2b", 0, 0, {}]]]}, {"name": "activation_27", "config": {"name": "activation_27", "trainable": true, "activation": "relu"}, "class_name": "Activation", "inbound_nodes": [[["bn4b_branch2b", 0, 0, {}]]]}, {"name": "res4b_branch2c", "config": {"bias_regularizer": null, "filters": 1024, "padding": "valid", "bias_constraint": null, "strides": [1, 1], "name": "res4b_branch2c", "use_bias": true, "activity_regularizer": null, "bias_initializer": {"config": {}, "class_name": "Zeros"}, "kernel_size": [1, 1], "trainable": true, "data_format": "channels_last", "kernel_regularizer": null, "dilation_rate": [1, 1], "kernel_constraint": null, "kernel_initializer": {"config": {"distribution": "normal", "mode": "fan_in", "seed": null, "scale": 2.0}, "class_name": "VarianceScaling"}, "activation": "linear"}, "class_name": "Conv2D", "inbound_nodes": [[["activation_27", 0, 0, {}]]]}, {"name": "bn4b_branch2c", "config": {"beta_initializer": {"config": {}, "class_name": "Zeros"}, "gamma_constraint": null, "gamma_regularizer": null, "beta_regularizer": null, "epsilon": 0.001, "beta_constraint": null, "name": "bn4b_branch2c", "momentum": 0.99, "center": true, "trainable": true, "moving_variance_initializer": {"config": {}, "class_name": "Ones"}, "axis": 3, "scale": true, "gamma_initializer": {"config": {}, "class_name": "Ones"}, "moving_mean_initializer": {"config": {}, "class_name": "Zeros"}}, "class_name": "BatchNormalization", "inbound_nodes": [[["res4b_branch2c", 0, 0, {}]]]}, {"name": "add_9", "config": {"name": "add_9", "trainable": true}, "class_name": "Add", "inbound_nodes": [[["bn4b_branch2c", 0, 0, {}], ["activation_25", 0, 0, {}]]]}, {"name": "activation_28", "config": {"name": "activation_28", "trainable": true, "activation": "relu"}, "class_name": "Activation", "inbound_nodes": [[["add_9", 0, 0, {}]]]}, {"name": "res4c_branch2a", "config": {"bias_regularizer": null, "filters": 256, "padding": "valid", "bias_constraint": null, "strides": [1, 1], "name": "res4c_branch2a", "use_bias": true, "activity_regularizer": null, "bias_initializer": {"config": {}, "class_name": "Zeros"}, "kernel_size": [1, 1], "trainable": true, "data_format": "channels_last", "kernel_regularizer": null, "dilation_rate": [1, 1], "kernel_constraint": null, "kernel_initializer": {"config": {"distribution": "normal", "mode": "fan_in", "seed": null, "scale": 2.0}, "class_name": "VarianceScaling"}, "activation": "linear"}, "class_name": "Conv2D", "inbound_nodes": [[["activation_28", 0, 0, {}]]]}, {"name": "bn4c_branch2a", "config": {"beta_initializer": {"config": {}, "class_name": "Zeros"}, "gamma_constraint": null, "gamma_regularizer": null, "beta_regularizer": null, "epsilon": 0.001, "beta_constraint": null, "name": "bn4c_branch2a", "momentum": 0.99, "center": true, "trainable": true, "moving_variance_initializer": {"config": {}, "class_name": "Ones"}, "axis": 3, "scale": true, "gamma_initializer": {"config": {}, "class_name": "Ones"}, "moving_mean_initializer": {"config": {}, "class_name": "Zeros"}}, "class_name": "BatchNormalization", "inbound_nodes": [[["res4c_branch2a", 0, 0, {}]]]}, {"name": "activation_29", "config": {"name": "activation_29", "trainable": true, "activation": "relu"}, "class_name": "Activation", "inbound_nodes": [[["bn4c_branch2a", 0, 0, {}]]]}, {"name": "res4c_branch2b", "config": {"bias_regularizer": null, "filters": 256, "padding": "same", "bias_constraint": null, "strides": [1, 1], "name": "res4c_branch2b", "use_bias": true, "activity_regularizer": null, "bias_initializer": {"config": {}, "class_name": "Zeros"}, "kernel_size": [3, 3], "trainable": true, "data_format": "channels_last", "kernel_regularizer": null, "dilation_rate": [1, 1], "kernel_constraint": null, "kernel_initializer": {"config": {"distribution": "normal", "mode": "fan_in", "seed": null, "scale": 2.0}, "class_name": "VarianceScaling"}, "activation": "linear"}, "class_name": "Conv2D", "inbound_nodes": [[["activation_29", 0, 0, {}]]]}, {"name": "bn4c_branch2b", "config": {"beta_initializer": {"config": {}, "class_name": "Zeros"}, "gamma_constraint": null, "gamma_regularizer": null, "beta_regularizer": null, "epsilon": 0.001, "beta_constraint": null, "name": "bn4c_branch2b", "momentum": 0.99, "center": true, "trainable": true, "moving_variance_initializer": {"config": {}, "class_name": "Ones"}, "axis": 3, "scale": true, "gamma_initializer": {"config": {}, "class_name": "Ones"}, "moving_mean_initializer": {"config": {}, "class_name": "Zeros"}}, "class_name": "BatchNormalization", "inbound_nodes": [[["res4c_branch2b", 0, 0, {}]]]}, {"name": "activation_30", "config": {"name": "activation_30", "trainable": true, "activation": "relu"}, "class_name": "Activation", "inbound_nodes": [[["bn4c_branch2b", 0, 0, {}]]]}, {"name": "res4c_branch2c", "config": {"bias_regularizer": null, "filters": 1024, "padding": "valid", "bias_constraint": null, "strides": [1, 1], "name": "res4c_branch2c", "use_bias": true, "activity_regularizer": null, "bias_initializer": {"config": {}, "class_name": "Zeros"}, "kernel_size": [1, 1], "trainable": true, "data_format": "channels_last", "kernel_regularizer": null, "dilation_rate": [1, 1], "kernel_constraint": null, "kernel_initializer": {"config": {"distribution": "normal", "mode": "fan_in", "seed": null, "scale": 2.0}, "class_name": "VarianceScaling"}, "activation": "linear"}, "class_name": "Conv2D", "inbound_nodes": [[["activation_30", 0, 0, {}]]]}, {"name": "bn4c_branch2c", "config": {"beta_initializer": {"config": {}, "class_name": "Zeros"}, "gamma_constraint": null, "gamma_regularizer": null, "beta_regularizer": null, "epsilon": 0.001, "beta_constraint": null, "name": "bn4c_branch2c", "momentum": 0.99, "center": true, "trainable": true, "moving_variance_initializer": {"config": {}, "class_name": "Ones"}, "axis": 3, "scale": true, "gamma_initializer": {"config": {}, "class_name": "Ones"}, "moving_mean_initializer": {"config": {}, "class_name": "Zeros"}}, "class_name": "BatchNormalization", "inbound_nodes": [[["res4c_branch2c", 0, 0, {}]]]}, {"name": "add_10", "config": {"name": "add_10", "trainable": true}, "class_name": "Add", "inbound_nodes": [[["bn4c_branch2c", 0, 0, {}], ["activation_28", 0, 0, {}]]]}, {"name": "activation_31", "config": {"name": "activation_31", "trainable": true, "activation": "relu"}, "class_name": "Activation", "inbound_nodes": [[["add_10", 0, 0, {}]]]}, {"name": "res4d_branch2a", "config": {"bias_regularizer": null, "filters": 256, "padding": "valid", "bias_constraint": null, "strides": [1, 1], "name": "res4d_branch2a", "use_bias": true, "activity_regularizer": null, "bias_initializer": {"config": {}, "class_name": "Zeros"}, "kernel_size": [1, 1], "trainable": true, "data_format": "channels_last", "kernel_regularizer": null, "dilation_rate": [1, 1], "kernel_constraint": null, "kernel_initializer": {"config": {"distribution": "normal", "mode": "fan_in", "seed": null, "scale": 2.0}, "class_name": "VarianceScaling"}, "activation": "linear"}, "class_name": "Conv2D", "inbound_nodes": [[["activation_31", 0, 0, {}]]]}, {"name": "bn4d_branch2a", "config": {"beta_initializer": {"config": {}, "class_name": "Zeros"}, "gamma_constraint": null, "gamma_regularizer": null, "beta_regularizer": null, "epsilon": 0.001, "beta_constraint": null, "name": "bn4d_branch2a", "momentum": 0.99, "center": true, "trainable": true, "moving_variance_initializer": {"config": {}, "class_name": "Ones"}, "axis": 3, "scale": true, "gamma_initializer": {"config": {}, "class_name": "Ones"}, "moving_mean_initializer": {"config": {}, "class_name": "Zeros"}}, "class_name": "BatchNormalization", "inbound_nodes": [[["res4d_branch2a", 0, 0, {}]]]}, {"name": "activation_32", "config": {"name": "activation_32", "trainable": true, "activation": "relu"}, "class_name": "Activation", "inbound_nodes": [[["bn4d_branch2a", 0, 0, {}]]]}, {"name": "res4d_branch2b", "config": {"bias_regularizer": null, "filters": 256, "padding": "same", "bias_constraint": null, "strides": [1, 1], "name": "res4d_branch2b", "use_bias": true, "activity_regularizer": null, "bias_initializer": {"config": {}, "class_name": "Zeros"}, "kernel_size": [3, 3], "trainable": true, "data_format": "channels_last", "kernel_regularizer": null, "dilation_rate": [1, 1], "kernel_constraint": null, "kernel_initializer": {"config": {"distribution": "normal", "mode": "fan_in", "seed": null, "scale": 2.0}, "class_name": "VarianceScaling"}, "activation": "linear"}, "class_name": "Conv2D", "inbound_nodes": [[["activation_32", 0, 0, {}]]]}, {"name": "bn4d_branch2b", "config": {"beta_initializer": {"config": {}, "class_name": "Zeros"}, "gamma_constraint": null, "gamma_regularizer": null, "beta_regularizer": null, "epsilon": 0.001, "beta_constraint": null, "name": "bn4d_branch2b", "momentum": 0.99, "center": true, "trainable": true, "moving_variance_initializer": {"config": {}, "class_name": "Ones"}, "axis": 3, "scale": true, "gamma_initializer": {"config": {}, "class_name": "Ones"}, "moving_mean_initializer": {"config": {}, "class_name": "Zeros"}}, "class_name": "BatchNormalization", "inbound_nodes": [[["res4d_branch2b", 0, 0, {}]]]}, {"name": "activation_33", "config": {"name": "activation_33", "trainable": true, "activation": "relu"}, "class_name": "Activation", "inbound_nodes": [[["bn4d_branch2b", 0, 0, {}]]]}, {"name": "res4d_branch2c", "config": {"bias_regularizer": null, "filters": 1024, "padding": "valid", "bias_constraint": null, "strides": [1, 1], "name": "res4d_branch2c", "use_bias": true, "activity_regularizer": null, "bias_initializer": {"config": {}, "class_name": "Zeros"}, "kernel_size": [1, 1], "trainable": true, "data_format": "channels_last", "kernel_regularizer": null, "dilation_rate": [1, 1], "kernel_constraint": null, "kernel_initializer": {"config": {"distribution": "normal", "mode": "fan_in", "seed": null, "scale": 2.0}, "class_name": "VarianceScaling"}, "activation": "linear"}, "class_name": "Conv2D", "inbound_nodes": [[["activation_33", 0, 0, {}]]]}, {"name": "bn4d_branch2c", "config": {"beta_initializer": {"config": {}, "class_name": "Zeros"}, "gamma_constraint": null, "gamma_regularizer": null, "beta_regularizer": null, "epsilon": 0.001, "beta_constraint": null, "name": "bn4d_branch2c", "momentum": 0.99, "center": true, "trainable": true, "moving_variance_initializer": {"config": {}, "class_name": "Ones"}, "axis": 3, "scale": true, "gamma_initializer": {"config": {}, "class_name": "Ones"}, "moving_mean_initializer": {"config": {}, "class_name": "Zeros"}}, "class_name": "BatchNormalization", "inbound_nodes": [[["res4d_branch2c", 0, 0, {}]]]}, {"name": "add_11", "config": {"name": "add_11", "trainable": true}, "class_name": "Add", "inbound_nodes": [[["bn4d_branch2c", 0, 0, {}], ["activation_31", 0, 0, {}]]]}, {"name": "activation_34", "config": {"name": "activation_34", "trainable": true, "activation": "relu"}, "class_name": "Activation", "inbound_nodes": [[["add_11", 0, 0, {}]]]}, {"name": "res4e_branch2a", "config": {"bias_regularizer": null, "filters": 256, "padding": "valid", "bias_constraint": null, "strides": [1, 1], "name": "res4e_branch2a", "use_bias": true, "activity_regularizer": null, "bias_initializer": {"config": {}, "class_name": "Zeros"}, "kernel_size": [1, 1], "trainable": true, "data_format": "channels_last", "kernel_regularizer": null, "dilation_rate": [1, 1], "kernel_constraint": null, "kernel_initializer": {"config": {"distribution": "normal", "mode": "fan_in", "seed": null, "scale": 2.0}, "class_name": "VarianceScaling"}, "activation": "linear"}, "class_name": "Conv2D", "inbound_nodes": [[["activation_34", 0, 0, {}]]]}, {"name": "bn4e_branch2a", "config": {"beta_initializer": {"config": {}, "class_name": "Zeros"}, "gamma_constraint": null, "gamma_regularizer": null, "beta_regularizer": null, "epsilon": 0.001, "beta_constraint": null, "name": "bn4e_branch2a", "momentum": 0.99, "center": true, "trainable": true, "moving_variance_initializer": {"config": {}, "class_name": "Ones"}, "axis": 3, "scale": true, "gamma_initializer": {"config": {}, "class_name": "Ones"}, "moving_mean_initializer": {"config": {}, "class_name": "Zeros"}}, "class_name": "BatchNormalization", "inbound_nodes": [[["res4e_branch2a", 0, 0, {}]]]}, {"name": "activation_35", "config": {"name": "activation_35", "trainable": true, "activation": "relu"}, "class_name": "Activation", "inbound_nodes": [[["bn4e_branch2a", 0, 0, {}]]]}, {"name": "res4e_branch2b", "config": {"bias_regularizer": null, "filters": 256, "padding": "same", "bias_constraint": null, "strides": [1, 1], "name": "res4e_branch2b", "use_bias": true, "activity_regularizer": null, "bias_initializer": {"config": {}, "class_name": "Zeros"}, "kernel_size": [3, 3], "trainable": true, "data_format": "channels_last", "kernel_regularizer": null, "dilation_rate": [1, 1], "kernel_constraint": null, "kernel_initializer": {"config": {"distribution": "normal", "mode": "fan_in", "seed": null, "scale": 2.0}, "class_name": "VarianceScaling"}, "activation": "linear"}, "class_name": "Conv2D", "inbound_nodes": [[["activation_35", 0, 0, {}]]]}, {"name": "bn4e_branch2b", "config": {"beta_initializer": {"config": {}, "class_name": "Zeros"}, "gamma_constraint": null, "gamma_regularizer": null, "beta_regularizer": null, "epsilon": 0.001, "beta_constraint": null, "name": "bn4e_branch2b", "momentum": 0.99, "center": true, "trainable": true, "moving_variance_initializer": {"config": {}, "class_name": "Ones"}, "axis": 3, "scale": true, "gamma_initializer": {"config": {}, "class_name": "Ones"}, "moving_mean_initializer": {"config": {}, "class_name": "Zeros"}}, "class_name": "BatchNormalization", "inbound_nodes": [[["res4e_branch2b", 0, 0, {}]]]}, {"name": "activation_36", "config": {"name": "activation_36", "trainable": true, "activation": "relu"}, "class_name": "Activation", "inbound_nodes": [[["bn4e_branch2b", 0, 0, {}]]]}, {"name": "res4e_branch2c", "config": {"bias_regularizer": null, "filters": 1024, "padding": "valid", "bias_constraint": null, "strides": [1, 1], "name": "res4e_branch2c", "use_bias": true, "activity_regularizer": null, "bias_initializer": {"config": {}, "class_name": "Zeros"}, "kernel_size": [1, 1], "trainable": true, "data_format": "channels_last", "kernel_regularizer": null, "dilation_rate": [1, 1], "kernel_constraint": null, "kernel_initializer": {"config": {"distribution": "normal", "mode": "fan_in", "seed": null, "scale": 2.0}, "class_name": "VarianceScaling"}, "activation": "linear"}, "class_name": "Conv2D", "inbound_nodes": [[["activation_36", 0, 0, {}]]]}, {"name": "bn4e_branch2c", "config": {"beta_initializer": {"config": {}, "class_name": "Zeros"}, "gamma_constraint": null, "gamma_regularizer": null, "beta_regularizer": null, "epsilon": 0.001, "beta_constraint": null, "name": "bn4e_branch2c", "momentum": 0.99, "center": true, "trainable": true, "moving_variance_initializer": {"config": {}, "class_name": "Ones"}, "axis": 3, "scale": true, "gamma_initializer": {"config": {}, "class_name": "Ones"}, "moving_mean_initializer": {"config": {}, "class_name": "Zeros"}}, "class_name": "BatchNormalization", "inbound_nodes": [[["res4e_branch2c", 0, 0, {}]]]}, {"name": "add_12", "config": {"name": "add_12", "trainable": true}, "class_name": "Add", "inbound_nodes": [[["bn4e_branch2c", 0, 0, {}], ["activation_34", 0, 0, {}]]]}, {"name": "activation_37", "config": {"name": "activation_37", "trainable": true, "activation": "relu"}, "class_name": "Activation", "inbound_nodes": [[["add_12", 0, 0, {}]]]}, {"name": "res4f_branch2a", "config": {"bias_regularizer": null, "filters": 256, "padding": "valid", "bias_constraint": null, "strides": [1, 1], "name": "res4f_branch2a", "use_bias": true, "activity_regularizer": null, "bias_initializer": {"config": {}, "class_name": "Zeros"}, "kernel_size": [1, 1], "trainable": true, "data_format": "channels_last", "kernel_regularizer": null, "dilation_rate": [1, 1], "kernel_constraint": null, "kernel_initializer": {"config": {"distribution": "normal", "mode": "fan_in", "seed": null, "scale": 2.0}, "class_name": "VarianceScaling"}, "activation": "linear"}, "class_name": "Conv2D", "inbound_nodes": [[["activation_37", 0, 0, {}]]]}, {"name": "bn4f_branch2a", "config": {"beta_initializer": {"config": {}, "class_name": "Zeros"}, "gamma_constraint": null, "gamma_regularizer": null, "beta_regularizer": null, "epsilon": 0.001, "beta_constraint": null, "name": "bn4f_branch2a", "momentum": 0.99, "center": true, "trainable": true, "moving_variance_initializer": {"config": {}, "class_name": "Ones"}, "axis": 3, "scale": true, "gamma_initializer": {"config": {}, "class_name": "Ones"}, "moving_mean_initializer": {"config": {}, "class_name": "Zeros"}}, "class_name": "BatchNormalization", "inbound_nodes": [[["res4f_branch2a", 0, 0, {}]]]}, {"name": "activation_38", "config": {"name": "activation_38", "trainable": true, "activation": "relu"}, "class_name": "Activation", "inbound_nodes": [[["bn4f_branch2a", 0, 0, {}]]]}, {"name": "res4f_branch2b", "config": {"bias_regularizer": null, "filters": 256, "padding": "same", "bias_constraint": null, "strides": [1, 1], "name": "res4f_branch2b", "use_bias": true, "activity_regularizer": null, "bias_initializer": {"config": {}, "class_name": "Zeros"}, "kernel_size": [3, 3], "trainable": true, "data_format": "channels_last", "kernel_regularizer": null, "dilation_rate": [1, 1], "kernel_constraint": null, "kernel_initializer": {"config": {"distribution": "normal", "mode": "fan_in", "seed": null, "scale": 2.0}, "class_name": "VarianceScaling"}, "activation": "linear"}, "class_name": "Conv2D", "inbound_nodes": [[["activation_38", 0, 0, {}]]]}, {"name": "bn4f_branch2b", "config": {"beta_initializer": {"config": {}, "class_name": "Zeros"}, "gamma_constraint": null, "gamma_regularizer": null, "beta_regularizer": null, "epsilon": 0.001, "beta_constraint": null, "name": "bn4f_branch2b", "momentum": 0.99, "center": true, "trainable": true, "moving_variance_initializer": {"config": {}, "class_name": "Ones"}, "axis": 3, "scale": true, "gamma_initializer": {"config": {}, "class_name": "Ones"}, "moving_mean_initializer": {"config": {}, "class_name": "Zeros"}}, "class_name": "BatchNormalization", "inbound_nodes": [[["res4f_branch2b", 0, 0, {}]]]}, {"name": "activation_39", "config": {"name": "activation_39", "trainable": true, "activation": "relu"}, "class_name": "Activation", "inbound_nodes": [[["bn4f_branch2b", 0, 0, {}]]]}, {"name": "res4f_branch2c", "config": {"bias_regularizer": null, "filters": 1024, "padding": "valid", "bias_constraint": null, "strides": [1, 1], "name": "res4f_branch2c", "use_bias": true, "activity_regularizer": null, "bias_initializer": {"config": {}, "class_name": "Zeros"}, "kernel_size": [1, 1], "trainable": true, "data_format": "channels_last", "kernel_regularizer": null, "dilation_rate": [1, 1], "kernel_constraint": null, "kernel_initializer": {"config": {"distribution": "normal", "mode": "fan_in", "seed": null, "scale": 2.0}, "class_name": "VarianceScaling"}, "activation": "linear"}, "class_name": "Conv2D", "inbound_nodes": [[["activation_39", 0, 0, {}]]]}, {"name": "bn4f_branch2c", "config": {"beta_initializer": {"config": {}, "class_name": "Zeros"}, "gamma_constraint": null, "gamma_regularizer": null, "beta_regularizer": null, "epsilon": 0.001, "beta_constraint": null, "name": "bn4f_branch2c", "momentum": 0.99, "center": true, "trainable": true, "moving_variance_initializer": {"config": {}, "class_name": "Ones"}, "axis": 3, "scale": true, "gamma_initializer": {"config": {}, "class_name": "Ones"}, "moving_mean_initializer": {"config": {}, "class_name": "Zeros"}}, "class_name": "BatchNormalization", "inbound_nodes": [[["res4f_branch2c", 0, 0, {}]]]}, {"name": "add_13", "config": {"name": "add_13", "trainable": true}, "class_name": "Add", "inbound_nodes": [[["bn4f_branch2c", 0, 0, {}], ["activation_37", 0, 0, {}]]]}, {"name": "activation_40", "config": {"name": "activation_40", "trainable": true, "activation": "relu"}, "class_name": "Activation", "inbound_nodes": [[["add_13", 0, 0, {}]]]}, {"name": "res5a_branch2a", "config": {"bias_regularizer": null, "filters": 512, "padding": "valid", "bias_constraint": null, "strides": [2, 2], "name": "res5a_branch2a", "use_bias": true, "activity_regularizer": null, "bias_initializer": {"config": {}, "class_name": "Zeros"}, "kernel_size": [1, 1], "trainable": true, "data_format": "channels_last", "kernel_regularizer": null, "dilation_rate": [1, 1], "kernel_constraint": null, "kernel_initializer": {"config": {"distribution": "normal", "mode": "fan_in", "seed": null, "scale": 2.0}, "class_name": "VarianceScaling"}, "activation": "linear"}, "class_name": "Conv2D", "inbound_nodes": [[["activation_40", 0, 0, {}]]]}, {"name": "bn5a_branch2a", "config": {"beta_initializer": {"config": {}, "class_name": "Zeros"}, "gamma_constraint": null, "gamma_regularizer": null, "beta_regularizer": null, "epsilon": 0.001, "beta_constraint": null, "name": "bn5a_branch2a", "momentum": 0.99, "center": true, "trainable": true, "moving_variance_initializer": {"config": {}, "class_name": "Ones"}, "axis": 3, "scale": true, "gamma_initializer": {"config": {}, "class_name": "Ones"}, "moving_mean_initializer": {"config": {}, "class_name": "Zeros"}}, "class_name": "BatchNormalization", "inbound_nodes": [[["res5a_branch2a", 0, 0, {}]]]}, {"name": "activation_41", "config": {"name": "activation_41", "trainable": true, "activation": "relu"}, "class_name": "Activation", "inbound_nodes": [[["bn5a_branch2a", 0, 0, {}]]]}, {"name": "res5a_branch2b", "config": {"bias_regularizer": null, "filters": 512, "padding": "same", "bias_constraint": null, "strides": [1, 1], "name": "res5a_branch2b", "use_bias": true, "activity_regularizer": null, "bias_initializer": {"config": {}, "class_name": "Zeros"}, "kernel_size": [3, 3], "trainable": true, "data_format": "channels_last", "kernel_regularizer": null, "dilation_rate": [1, 1], "kernel_constraint": null, "kernel_initializer": {"config": {"distribution": "normal", "mode": "fan_in", "seed": null, "scale": 2.0}, "class_name": "VarianceScaling"}, "activation": "linear"}, "class_name": "Conv2D", "inbound_nodes": [[["activation_41", 0, 0, {}]]]}, {"name": "bn5a_branch2b", "config": {"beta_initializer": {"config": {}, "class_name": "Zeros"}, "gamma_constraint": null, "gamma_regularizer": null, "beta_regularizer": null, "epsilon": 0.001, "beta_constraint": null, "name": "bn5a_branch2b", "momentum": 0.99, "center": true, "trainable": true, "moving_variance_initializer": {"config": {}, "class_name": "Ones"}, "axis": 3, "scale": true, "gamma_initializer": {"config": {}, "class_name": "Ones"}, "moving_mean_initializer": {"config": {}, "class_name": "Zeros"}}, "class_name": "BatchNormalization", "inbound_nodes": [[["res5a_branch2b", 0, 0, {}]]]}, {"name": "activation_42", "config": {"name": "activation_42", "trainable": true, "activation": "relu"}, "class_name": "Activation", "inbound_nodes": [[["bn5a_branch2b", 0, 0, {}]]]}, {"name": "res5a_branch2c", "config": {"bias_regularizer": null, "filters": 2048, "padding": "valid", "bias_constraint": null, "strides": [1, 1], "name": "res5a_branch2c", "use_bias": true, "activity_regularizer": null, "bias_initializer": {"config": {}, "class_name": "Zeros"}, "kernel_size": [1, 1], "trainable": true, "data_format": "channels_last", "kernel_regularizer": null, "dilation_rate": [1, 1], "kernel_constraint": null, "kernel_initializer": {"config": {"distribution": "normal", "mode": "fan_in", "seed": null, "scale": 2.0}, "class_name": "VarianceScaling"}, "activation": "linear"}, "class_name": "Conv2D", "inbound_nodes": [[["activation_42", 0, 0, {}]]]}, {"name": "res5a_branch1", "config": {"bias_regularizer": null, "filters": 2048, "padding": "valid", "bias_constraint": null, "strides": [2, 2], "name": "res5a_branch1", "use_bias": true, "activity_regularizer": null, "bias_initializer": {"config": {}, "class_name": "Zeros"}, "kernel_size": [1, 1], "trainable": true, "data_format": "channels_last", "kernel_regularizer": null, "dilation_rate": [1, 1], "kernel_constraint": null, "kernel_initializer": {"config": {"distribution": "normal", "mode": "fan_in", "seed": null, "scale": 2.0}, "class_name": "VarianceScaling"}, "activation": "linear"}, "class_name": "Conv2D", "inbound_nodes": [[["activation_40", 0, 0, {}]]]}, {"name": "bn5a_branch2c", "config": {"beta_initializer": {"config": {}, "class_name": "Zeros"}, "gamma_constraint": null, "gamma_regularizer": null, "beta_regularizer": null, "epsilon": 0.001, "beta_constraint": null, "name": "bn5a_branch2c", "momentum": 0.99, "center": true, "trainable": true, "moving_variance_initializer": {"config": {}, "class_name": "Ones"}, "axis": 3, "scale": true, "gamma_initializer": {"config": {}, "class_name": "Ones"}, "moving_mean_initializer": {"config": {}, "class_name": "Zeros"}}, "class_name": "BatchNormalization", "inbound_nodes": [[["res5a_branch2c", 0, 0, {}]]]}, {"name": "bn5a_branch1", "config": {"beta_initializer": {"config": {}, "class_name": "Zeros"}, "gamma_constraint": null, "gamma_regularizer": null, "beta_regularizer": null, "epsilon": 0.001, "beta_constraint": null, "name": "bn5a_branch1", "momentum": 0.99, "center": true, "trainable": true, "moving_variance_initializer": {"config": {}, "class_name": "Ones"}, "axis": 3, "scale": true, "gamma_initializer": {"config": {}, "class_name": "Ones"}, "moving_mean_initializer": {"config": {}, "class_name": "Zeros"}}, "class_name": "BatchNormalization", "inbound_nodes": [[["res5a_branch1", 0, 0, {}]]]}, {"name": "add_14", "config": {"name": "add_14", "trainable": true}, "class_name": "Add", "inbound_nodes": [[["bn5a_branch2c", 0, 0, {}], ["bn5a_branch1", 0, 0, {}]]]}, {"name": "activation_43", "config": {"name": "activation_43", "trainable": true, "activation": "relu"}, "class_name": "Activation", "inbound_nodes": [[["add_14", 0, 0, {}]]]}, {"name": "res5b_branch2a", "config": {"bias_regularizer": null, "filters": 512, "padding": "valid", "bias_constraint": null, "strides": [1, 1], "name": "res5b_branch2a", "use_bias": true, "activity_regularizer": null, "bias_initializer": {"config": {}, "class_name": "Zeros"}, "kernel_size": [1, 1], "trainable": true, "data_format": "channels_last", "kernel_regularizer": null, "dilation_rate": [1, 1], "kernel_constraint": null, "kernel_initializer": {"config": {"distribution": "normal", "mode": "fan_in", "seed": null, "scale": 2.0}, "class_name": "VarianceScaling"}, "activation": "linear"}, "class_name": "Conv2D", "inbound_nodes": [[["activation_43", 0, 0, {}]]]}, {"name": "bn5b_branch2a", "config": {"beta_initializer": {"config": {}, "class_name": "Zeros"}, "gamma_constraint": null, "gamma_regularizer": null, "beta_regularizer": null, "epsilon": 0.001, "beta_constraint": null, "name": "bn5b_branch2a", "momentum": 0.99, "center": true, "trainable": true, "moving_variance_initializer": {"config": {}, "class_name": "Ones"}, "axis": 3, "scale": true, "gamma_initializer": {"config": {}, "class_name": "Ones"}, "moving_mean_initializer": {"config": {}, "class_name": "Zeros"}}, "class_name": "BatchNormalization", "inbound_nodes": [[["res5b_branch2a", 0, 0, {}]]]}, {"name": "activation_44", "config": {"name": "activation_44", "trainable": true, "activation": "relu"}, "class_name": "Activation", "inbound_nodes": [[["bn5b_branch2a", 0, 0, {}]]]}, {"name": "res5b_branch2b", "config": {"bias_regularizer": null, "filters": 512, "padding": "same", "bias_constraint": null, "strides": [1, 1], "name": "res5b_branch2b", "use_bias": true, "activity_regularizer": null, "bias_initializer": {"config": {}, "class_name": "Zeros"}, "kernel_size": [3, 3], "trainable": true, "data_format": "channels_last", "kernel_regularizer": null, "dilation_rate": [1, 1], "kernel_constraint": null, "kernel_initializer": {"config": {"distribution": "normal", "mode": "fan_in", "seed": null, "scale": 2.0}, "class_name": "VarianceScaling"}, "activation": "linear"}, "class_name": "Conv2D", "inbound_nodes": [[["activation_44", 0, 0, {}]]]}, {"name": "bn5b_branch2b", "config": {"beta_initializer": {"config": {}, "class_name": "Zeros"}, "gamma_constraint": null, "gamma_regularizer": null, "beta_regularizer": null, "epsilon": 0.001, "beta_constraint": null, "name": "bn5b_branch2b", "momentum": 0.99, "center": true, "trainable": true, "moving_variance_initializer": {"config": {}, "class_name": "Ones"}, "axis": 3, "scale": true, "gamma_initializer": {"config": {}, "class_name": "Ones"}, "moving_mean_initializer": {"config": {}, "class_name": "Zeros"}}, "class_name": "BatchNormalization", "inbound_nodes": [[["res5b_branch2b", 0, 0, {}]]]}, {"name": "activation_45", "config": {"name": "activation_45", "trainable": true, "activation": "relu"}, "class_name": "Activation", "inbound_nodes": [[["bn5b_branch2b", 0, 0, {}]]]}, {"name": "res5b_branch2c", "config": {"bias_regularizer": null, "filters": 2048, "padding": "valid", "bias_constraint": null, "strides": [1, 1], "name": "res5b_branch2c", "use_bias": true, "activity_regularizer": null, "bias_initializer": {"config": {}, "class_name": "Zeros"}, "kernel_size": [1, 1], "trainable": true, "data_format": "channels_last", "kernel_regularizer": null, "dilation_rate": [1, 1], "kernel_constraint": null, "kernel_initializer": {"config": {"distribution": "normal", "mode": "fan_in", "seed": null, "scale": 2.0}, "class_name": "VarianceScaling"}, "activation": "linear"}, "class_name": "Conv2D", "inbound_nodes": [[["activation_45", 0, 0, {}]]]}, {"name": "bn5b_branch2c", "config": {"beta_initializer": {"config": {}, "class_name": "Zeros"}, "gamma_constraint": null, "gamma_regularizer": null, "beta_regularizer": null, "epsilon": 0.001, "beta_constraint": null, "name": "bn5b_branch2c", "momentum": 0.99, "center": true, "trainable": true, "moving_variance_initializer": {"config": {}, "class_name": "Ones"}, "axis": 3, "scale": true, "gamma_initializer": {"config": {}, "class_name": "Ones"}, "moving_mean_initializer": {"config": {}, "class_name": "Zeros"}}, "class_name": "BatchNormalization", "inbound_nodes": [[["res5b_branch2c", 0, 0, {}]]]}, {"name": "add_15", "config": {"name": "add_15", "trainable": true}, "class_name": "Add", "inbound_nodes": [[["bn5b_branch2c", 0, 0, {}], ["activation_43", 0, 0, {}]]]}, {"name": "activation_46", "config": {"name": "activation_46", "trainable": true, "activation": "relu"}, "class_name": "Activation", "inbound_nodes": [[["add_15", 0, 0, {}]]]}, {"name": "res5c_branch2a", "config": {"bias_regularizer": null, "filters": 512, "padding": "valid", "bias_constraint": null, "strides": [1, 1], "name": "res5c_branch2a", "use_bias": true, "activity_regularizer": null, "bias_initializer": {"config": {}, "class_name": "Zeros"}, "kernel_size": [1, 1], "trainable": true, "data_format": "channels_last", "kernel_regularizer": null, "dilation_rate": [1, 1], "kernel_constraint": null, "kernel_initializer": {"config": {"distribution": "normal", "mode": "fan_in", "seed": null, "scale": 2.0}, "class_name": "VarianceScaling"}, "activation": "linear"}, "class_name": "Conv2D", "inbound_nodes": [[["activation_46", 0, 0, {}]]]}, {"name": "bn5c_branch2a", "config": {"beta_initializer": {"config": {}, "class_name": "Zeros"}, "gamma_constraint": null, "gamma_regularizer": null, "beta_regularizer": null, "epsilon": 0.001, "beta_constraint": null, "name": "bn5c_branch2a", "momentum": 0.99, "center": true, "trainable": true, "moving_variance_initializer": {"config": {}, "class_name": "Ones"}, "axis": 3, "scale": true, "gamma_initializer": {"config": {}, "class_name": "Ones"}, "moving_mean_initializer": {"config": {}, "class_name": "Zeros"}}, "class_name": "BatchNormalization", "inbound_nodes": [[["res5c_branch2a", 0, 0, {}]]]}, {"name": "activation_47", "config": {"name": "activation_47", "trainable": true, "activation": "relu"}, "class_name": "Activation", "inbound_nodes": [[["bn5c_branch2a", 0, 0, {}]]]}, {"name": "res5c_branch2b", "config": {"bias_regularizer": null, "filters": 512, "padding": "same", "bias_constraint": null, "strides": [1, 1], "name": "res5c_branch2b", "use_bias": true, "activity_regularizer": null, "bias_initializer": {"config": {}, "class_name": "Zeros"}, "kernel_size": [3, 3], "trainable": true, "data_format": "channels_last", "kernel_regularizer": null, "dilation_rate": [1, 1], "kernel_constraint": null, "kernel_initializer": {"config": {"distribution": "normal", "mode": "fan_in", "seed": null, "scale": 2.0}, "class_name": "VarianceScaling"}, "activation": "linear"}, "class_name": "Conv2D", "inbound_nodes": [[["activation_47", 0, 0, {}]]]}, {"name": "bn5c_branch2b", "config": {"beta_initializer": {"config": {}, "class_name": "Zeros"}, "gamma_constraint": null, "gamma_regularizer": null, "beta_regularizer": null, "epsilon": 0.001, "beta_constraint": null, "name": "bn5c_branch2b", "momentum": 0.99, "center": true, "trainable": true, "moving_variance_initializer": {"config": {}, "class_name": "Ones"}, "axis": 3, "scale": true, "gamma_initializer": {"config": {}, "class_name": "Ones"}, "moving_mean_initializer": {"config": {}, "class_name": "Zeros"}}, "class_name": "BatchNormalization", "inbound_nodes": [[["res5c_branch2b", 0, 0, {}]]]}, {"name": "activation_48", "config": {"name": "activation_48", "trainable": true, "activation": "relu"}, "class_name": "Activation", "inbound_nodes": [[["bn5c_branch2b", 0, 0, {}]]]}, {"name": "res5c_branch2c", "config": {"bias_regularizer": null, "filters": 2048, "padding": "valid", "bias_constraint": null, "strides": [1, 1], "name": "res5c_branch2c", "use_bias": true, "activity_regularizer": null, "bias_initializer": {"config": {}, "class_name": "Zeros"}, "kernel_size": [1, 1], "trainable": true, "data_format": "channels_last", "kernel_regularizer": null, "dilation_rate": [1, 1], "kernel_constraint": null, "kernel_initializer": {"config": {"distribution": "normal", "mode": "fan_in", "seed": null, "scale": 2.0}, "class_name": "VarianceScaling"}, "activation": "linear"}, "class_name": "Conv2D", "inbound_nodes": [[["activation_48", 0, 0, {}]]]}, {"name": "bn5c_branch2c", "config": {"beta_initializer": {"config": {}, "class_name": "Zeros"}, "gamma_constraint": null, "gamma_regularizer": null, "beta_regularizer": null, "epsilon": 0.001, "beta_constraint": null, "name": "bn5c_branch2c", "momentum": 0.99, "center": true, "trainable": true, "moving_variance_initializer": {"config": {}, "class_name": "Ones"}, "axis": 3, "scale": true, "gamma_initializer": {"config": {}, "class_name": "Ones"}, "moving_mean_initializer": {"config": {}, "class_name": "Zeros"}}, "class_name": "BatchNormalization", "inbound_nodes": [[["res5c_branch2c", 0, 0, {}]]]}, {"name": "add_16", "config": {"name": "add_16", "trainable": true}, "class_name": "Add", "inbound_nodes": [[["bn5c_branch2c", 0, 0, {}], ["activation_46", 0, 0, {}]]]}, {"name": "activation_49", "config": {"name": "activation_49", "trainable": true, "activation": "relu"}, "class_name": "Activation", "inbound_nodes": [[["add_16", 0, 0, {}]]]}, {"name": "avg_pool", "config": {"name": "avg_pool", "trainable": true, "data_format": "channels_last"}, "class_name": "GlobalAveragePooling2D", "inbound_nodes": [[["activation_49", 0, 0, {}]]]}, {"name": "fc1000", "config": {"bias_regularizer": null, "units": 1000, "name": "fc1000", "use_bias": true, "activity_regularizer": null, "bias_initializer": {"config": {}, "class_name": "Zeros"}, "kernel_regularizer": null, "trainable": true, "bias_constraint": null, "kernel_constraint": null, "kernel_initializer": {"config": {"distribution": "uniform", "mode": "fan_avg", "seed": null, "scale": 1.0}, "class_name": "VarianceScaling"}, "activation": "softmax"}, "class_name": "Dense", "inbound_nodes": [[["avg_pool", 0, 0, {}]]]}], "input_layers": [["input_1", 0, 0]], "output_layers": [["fc1000", 0, 0]]}, "class_name": "Model"}, "backend": "tensorflow", "keras_version": "2.2.4"}, "weightsManifest": [{"weights": [{"name": "bn2a_branch1/gamma", "dtype": "float32", "shape": [256]}, {"name": "bn2a_branch1/beta", "dtype": "float32", "shape": [256]}, {"name": "bn2a_branch1/moving_mean", "dtype": "float32", "shape": [256]}, {"name": "bn2a_branch1/moving_variance", "dtype": "float32", "shape": [256]}, {"name": "bn2a_branch2a/gamma", "dtype": "float32", "shape": [64]}, {"name": "bn2a_branch2a/beta", "dtype": "float32", "shape": [64]}, {"name": "bn2a_branch2a/moving_mean", "dtype": "float32", "shape": [64]}, {"name": "bn2a_branch2a/moving_variance", "dtype": "float32", "shape": [64]}, {"name": "bn2a_branch2b/gamma", "dtype": "float32", "shape": [64]}, {"name": "bn2a_branch2b/beta", "dtype": "float32", "shape": [64]}, {"name": "bn2a_branch2b/moving_mean", "dtype": "float32", "shape": [64]}, {"name": "bn2a_branch2b/moving_variance", "dtype": "float32", "shape": [64]}, {"name": "bn2a_branch2c/gamma", "dtype": "float32", "shape": [256]}, {"name": "bn2a_branch2c/beta", "dtype": "float32", "shape": [256]}, {"name": "bn2a_branch2c/moving_mean", "dtype": "float32", "shape": [256]}, {"name": "bn2a_branch2c/moving_variance", "dtype": "float32", "shape": [256]}, {"name": "bn2b_branch2a/gamma", "dtype": "float32", "shape": [64]}, {"name": "bn2b_branch2a/beta", "dtype": "float32", "shape": [64]}, {"name": "bn2b_branch2a/moving_mean", "dtype": "float32", "shape": [64]}, {"name": "bn2b_branch2a/moving_variance", "dtype": "float32", "shape": [64]}, {"name": "bn2b_branch2b/gamma", "dtype": "float32", "shape": [64]}, {"name": "bn2b_branch2b/beta", "dtype": "float32", "shape": [64]}, {"name": "bn2b_branch2b/moving_mean", "dtype": "float32", "shape": [64]}, {"name": "bn2b_branch2b/moving_variance", "dtype": "float32", "shape": [64]}, {"name": "bn2b_branch2c/gamma", "dtype": "float32", "shape": [256]}, {"name": "bn2b_branch2c/beta", "dtype": "float32", "shape": [256]}, {"name": "bn2b_branch2c/moving_mean", "dtype": "float32", "shape": [256]}, {"name": "bn2b_branch2c/moving_variance", "dtype": "float32", "shape": [256]}, {"name": "bn2c_branch2a/gamma", "dtype": "float32", "shape": [64]}, {"name": "bn2c_branch2a/beta", "dtype": "float32", "shape": [64]}, {"name": "bn2c_branch2a/moving_mean", "dtype": "float32", "shape": [64]}, {"name": "bn2c_branch2a/moving_variance", "dtype": "float32", "shape": [64]}, {"name": "bn2c_branch2b/gamma", "dtype": "float32", "shape": [64]}, {"name": "bn2c_branch2b/beta", "dtype": "float32", "shape": [64]}, {"name": "bn2c_branch2b/moving_mean", "dtype": "float32", "shape": [64]}, {"name": "bn2c_branch2b/moving_variance", "dtype": "float32", "shape": [64]}, {"name": "bn2c_branch2c/gamma", "dtype": "float32", "shape": [256]}, {"name": "bn2c_branch2c/beta", "dtype": "float32", "shape": [256]}, {"name": "bn2c_branch2c/moving_mean", "dtype": "float32", "shape": [256]}, {"name": "bn2c_branch2c/moving_variance", "dtype": "float32", "shape": [256]}, {"name": "bn3a_branch1/gamma", "dtype": "float32", "shape": [512]}, {"name": "bn3a_branch1/beta", "dtype": "float32", "shape": [512]}, {"name": "bn3a_branch1/moving_mean", "dtype": "float32", "shape": [512]}, {"name": "bn3a_branch1/moving_variance", "dtype": "float32", "shape": [512]}, {"name": "bn3a_branch2a/gamma", "dtype": "float32", "shape": [128]}, {"name": "bn3a_branch2a/beta", "dtype": "float32", "shape": [128]}, {"name": "bn3a_branch2a/moving_mean", "dtype": "float32", "shape": [128]}, {"name": "bn3a_branch2a/moving_variance", "dtype": "float32", "shape": [128]}, {"name": "bn3a_branch2b/gamma", "dtype": "float32", "shape": [128]}, {"name": "bn3a_branch2b/beta", "dtype": "float32", "shape": [128]}, {"name": "bn3a_branch2b/moving_mean", "dtype": "float32", "shape": [128]}, {"name": "bn3a_branch2b/moving_variance", "dtype": "float32", "shape": [128]}, {"name": "bn3a_branch2c/gamma", "dtype": "float32", "shape": [512]}, {"name": "bn3a_branch2c/beta", "dtype": "float32", "shape": [512]}, {"name": "bn3a_branch2c/moving_mean", "dtype": "float32", "shape": [512]}, {"name": "bn3a_branch2c/moving_variance", "dtype": "float32", "shape": [512]}, {"name": "bn3b_branch2a/gamma", "dtype": "float32", "shape": [128]}, {"name": "bn3b_branch2a/beta", "dtype": "float32", "shape": [128]}, {"name": "bn3b_branch2a/moving_mean", "dtype": "float32", "shape": [128]}, {"name": "bn3b_branch2a/moving_variance", "dtype": "float32", "shape": [128]}, {"name": "bn3b_branch2b/gamma", "dtype": "float32", "shape": [128]}, {"name": "bn3b_branch2b/beta", "dtype": "float32", "shape": [128]}, {"name": "bn3b_branch2b/moving_mean", "dtype": "float32", "shape": [128]}, {"name": "bn3b_branch2b/moving_variance", "dtype": "float32", "shape": [128]}, {"name": "bn3b_branch2c/gamma", "dtype": "float32", "shape": [512]}, {"name": "bn3b_branch2c/beta", "dtype": "float32", "shape": [512]}, {"name": "bn3b_branch2c/moving_mean", "dtype": "float32", "shape": [512]}, {"name": "bn3b_branch2c/moving_variance", "dtype": "float32", "shape": [512]}, {"name": "bn3c_branch2a/gamma", "dtype": "float32", "shape": [128]}, {"name": "bn3c_branch2a/beta", "dtype": "float32", "shape": [128]}, {"name": "bn3c_branch2a/moving_mean", "dtype": "float32", "shape": [128]}, {"name": "bn3c_branch2a/moving_variance", "dtype": "float32", "shape": [128]}, {"name": "bn3c_branch2b/gamma", "dtype": "float32", "shape": [128]}, {"name": "bn3c_branch2b/beta", "dtype": "float32", "shape": [128]}, {"name": "bn3c_branch2b/moving_mean", "dtype": "float32", "shape": [128]}, {"name": "bn3c_branch2b/moving_variance", "dtype": "float32", "shape": [128]}, {"name": "bn3c_branch2c/gamma", "dtype": "float32", "shape": [512]}, {"name": "bn3c_branch2c/beta", "dtype": "float32", "shape": [512]}, {"name": "bn3c_branch2c/moving_mean", "dtype": "float32", "shape": [512]}, {"name": "bn3c_branch2c/moving_variance", "dtype": "float32", "shape": [512]}, {"name": "bn3d_branch2a/gamma", "dtype": "float32", "shape": [128]}, {"name": "bn3d_branch2a/beta", "dtype": "float32", "shape": [128]}, {"name": "bn3d_branch2a/moving_mean", "dtype": "float32", "shape": [128]}, {"name": "bn3d_branch2a/moving_variance", "dtype": "float32", "shape": [128]}, {"name": "bn3d_branch2b/gamma", "dtype": "float32", "shape": [128]}, {"name": "bn3d_branch2b/beta", "dtype": "float32", "shape": [128]}, {"name": "bn3d_branch2b/moving_mean", "dtype": "float32", "shape": [128]}, {"name": "bn3d_branch2b/moving_variance", "dtype": "float32", "shape": [128]}, {"name": "bn3d_branch2c/gamma", "dtype": "float32", "shape": [512]}, {"name": "bn3d_branch2c/beta", "dtype": "float32", "shape": [512]}, {"name": "bn3d_branch2c/moving_mean", "dtype": "float32", "shape": [512]}, {"name": "bn3d_branch2c/moving_variance", "dtype": "float32", "shape": [512]}, {"name": "bn4a_branch1/gamma", "dtype": "float32", "shape": [1024]}, {"name": "bn4a_branch1/beta", "dtype": "float32", "shape": [1024]}, {"name": "bn4a_branch1/moving_mean", "dtype": "float32", "shape": [1024]}, {"name": "bn4a_branch1/moving_variance", "dtype": "float32", "shape": [1024]}, {"name": "bn4a_branch2a/gamma", "dtype": "float32", "shape": [256]}, {"name": "bn4a_branch2a/beta", "dtype": "float32", "shape": [256]}, {"name": "bn4a_branch2a/moving_mean", "dtype": "float32", "shape": [256]}, {"name": "bn4a_branch2a/moving_variance", "dtype": "float32", "shape": [256]}, {"name": "bn4a_branch2b/gamma", "dtype": "float32", "shape": [256]}, {"name": "bn4a_branch2b/beta", "dtype": "float32", "shape": [256]}, {"name": "bn4a_branch2b/moving_mean", "dtype": "float32", "shape": [256]}, {"name": "bn4a_branch2b/moving_variance", "dtype": "float32", "shape": [256]}, {"name": "bn4a_branch2c/gamma", "dtype": "float32", "shape": [1024]}, {"name": "bn4a_branch2c/beta", "dtype": "float32", "shape": [1024]}, {"name": "bn4a_branch2c/moving_mean", "dtype": "float32", "shape": [1024]}, {"name": "bn4a_branch2c/moving_variance", "dtype": "float32", "shape": [1024]}, {"name": "bn4b_branch2a/gamma", "dtype": "float32", "shape": [256]}, {"name": "bn4b_branch2a/beta", "dtype": "float32", "shape": [256]}, {"name": "bn4b_branch2a/moving_mean", "dtype": "float32", "shape": [256]}, {"name": "bn4b_branch2a/moving_variance", "dtype": "float32", "shape": [256]}, {"name": "bn4b_branch2b/gamma", "dtype": "float32", "shape": [256]}, {"name": "bn4b_branch2b/beta", "dtype": "float32", "shape": [256]}, {"name": "bn4b_branch2b/moving_mean", "dtype": "float32", "shape": [256]}, {"name": "bn4b_branch2b/moving_variance", "dtype": "float32", "shape": [256]}, {"name": "bn4b_branch2c/gamma", "dtype": "float32", "shape": [1024]}, {"name": "bn4b_branch2c/beta", "dtype": "float32", "shape": [1024]}, {"name": "bn4b_branch2c/moving_mean", "dtype": "float32", "shape": [1024]}, {"name": "bn4b_branch2c/moving_variance", "dtype": "float32", "shape": [1024]}, {"name": "bn4c_branch2a/gamma", "dtype": "float32", "shape": [256]}, {"name": "bn4c_branch2a/beta", "dtype": "float32", "shape": [256]}, {"name": "bn4c_branch2a/moving_mean", "dtype": "float32", "shape": [256]}, {"name": "bn4c_branch2a/moving_variance", "dtype": "float32", "shape": [256]}, {"name": "bn4c_branch2b/gamma", "dtype": "float32", "shape": [256]}, {"name": "bn4c_branch2b/beta", "dtype": "float32", "shape": [256]}, {"name": "bn4c_branch2b/moving_mean", "dtype": "float32", "shape": [256]}, {"name": "bn4c_branch2b/moving_variance", "dtype": "float32", "shape": [256]}, {"name": "bn4c_branch2c/gamma", "dtype": "float32", "shape": [1024]}, {"name": "bn4c_branch2c/beta", "dtype": "float32", "shape": [1024]}, {"name": "bn4c_branch2c/moving_mean", "dtype": "float32", "shape": [1024]}, {"name": "bn4c_branch2c/moving_variance", "dtype": "float32", "shape": [1024]}, {"name": "bn4d_branch2a/gamma", "dtype": "float32", "shape": [256]}, {"name": "bn4d_branch2a/beta", "dtype": "float32", "shape": [256]}, {"name": "bn4d_branch2a/moving_mean", "dtype": "float32", "shape": [256]}, {"name": "bn4d_branch2a/moving_variance", "dtype": "float32", "shape": [256]}, {"name": "bn4d_branch2b/gamma", "dtype": "float32", "shape": [256]}, {"name": "bn4d_branch2b/beta", "dtype": "float32", "shape": [256]}, {"name": "bn4d_branch2b/moving_mean", "dtype": "float32", "shape": [256]}, {"name": "bn4d_branch2b/moving_variance", "dtype": "float32", "shape": [256]}, {"name": "bn4d_branch2c/gamma", "dtype": "float32", "shape": [1024]}, {"name": "bn4d_branch2c/beta", "dtype": "float32", "shape": [1024]}, {"name": "bn4d_branch2c/moving_mean", "dtype": "float32", "shape": [1024]}, {"name": "bn4d_branch2c/moving_variance", "dtype": "float32", "shape": [1024]}, {"name": "bn4e_branch2a/gamma", "dtype": "float32", "shape": [256]}, {"name": "bn4e_branch2a/beta", "dtype": "float32", "shape": [256]}, {"name": "bn4e_branch2a/moving_mean", "dtype": "float32", "shape": [256]}, {"name": "bn4e_branch2a/moving_variance", "dtype": "float32", "shape": [256]}, {"name": "bn4e_branch2b/gamma", "dtype": "float32", "shape": [256]}, {"name": "bn4e_branch2b/beta", "dtype": "float32", "shape": [256]}, {"name": "bn4e_branch2b/moving_mean", "dtype": "float32", "shape": [256]}, {"name": "bn4e_branch2b/moving_variance", "dtype": "float32", "shape": [256]}, {"name": "bn4e_branch2c/gamma", "dtype": "float32", "shape": [1024]}, {"name": "bn4e_branch2c/beta", "dtype": "float32", "shape": [1024]}, {"name": "bn4e_branch2c/moving_mean", "dtype": "float32", "shape": [1024]}, {"name": "bn4e_branch2c/moving_variance", "dtype": "float32", "shape": [1024]}, {"name": "bn4f_branch2a/gamma", "dtype": "float32", "shape": [256]}, {"name": "bn4f_branch2a/beta", "dtype": "float32", "shape": [256]}, {"name": "bn4f_branch2a/moving_mean", "dtype": "float32", "shape": [256]}, {"name": "bn4f_branch2a/moving_variance", "dtype": "float32", "shape": [256]}, {"name": "bn4f_branch2b/gamma", "dtype": "float32", "shape": [256]}, {"name": "bn4f_branch2b/beta", "dtype": "float32", "shape": [256]}, {"name": "bn4f_branch2b/moving_mean", "dtype": "float32", "shape": [256]}, {"name": "bn4f_branch2b/moving_variance", "dtype": "float32", "shape": [256]}, {"name": "bn4f_branch2c/gamma", "dtype": "float32", "shape": [1024]}, {"name": "bn4f_branch2c/beta", "dtype": "float32", "shape": [1024]}, {"name": "bn4f_branch2c/moving_mean", "dtype": "float32", "shape": [1024]}, {"name": "bn4f_branch2c/moving_variance", "dtype": "float32", "shape": [1024]}, {"name": "bn5a_branch1/gamma", "dtype": "float32", "shape": [2048]}, {"name": "bn5a_branch1/beta", "dtype": "float32", "shape": [2048]}, {"name": "bn5a_branch1/moving_mean", "dtype": "float32", "shape": [2048]}, {"name": "bn5a_branch1/moving_variance", "dtype": "float32", "shape": [2048]}, {"name": "bn5a_branch2a/gamma", "dtype": "float32", "shape": [512]}, {"name": "bn5a_branch2a/beta", "dtype": "float32", "shape": [512]}, {"name": "bn5a_branch2a/moving_mean", "dtype": "float32", "shape": [512]}, {"name": "bn5a_branch2a/moving_variance", "dtype": "float32", "shape": [512]}, {"name": "bn5a_branch2b/gamma", "dtype": "float32", "shape": [512]}, {"name": "bn5a_branch2b/beta", "dtype": "float32", "shape": [512]}, {"name": "bn5a_branch2b/moving_mean", "dtype": "float32", "shape": [512]}, {"name": "bn5a_branch2b/moving_variance", "dtype": "float32", "shape": [512]}, {"name": "bn5a_branch2c/gamma", "dtype": "float32", "shape": [2048]}, {"name": "bn5a_branch2c/beta", "dtype": "float32", "shape": [2048]}, {"name": "bn5a_branch2c/moving_mean", "dtype": "float32", "shape": [2048]}, {"name": "bn5a_branch2c/moving_variance", "dtype": "float32", "shape": [2048]}, {"name": "bn5b_branch2a/gamma", "dtype": "float32", "shape": [512]}, {"name": "bn5b_branch2a/beta", "dtype": "float32", "shape": [512]}, {"name": "bn5b_branch2a/moving_mean", "dtype": "float32", "shape": [512]}, {"name": "bn5b_branch2a/moving_variance", "dtype": "float32", "shape": [512]}, {"name": "bn5b_branch2b/gamma", "dtype": "float32", "shape": [512]}, {"name": "bn5b_branch2b/beta", "dtype": "float32", "shape": [512]}, {"name": "bn5b_branch2b/moving_mean", "dtype": "float32", "shape": [512]}, {"name": "bn5b_branch2b/moving_variance", "dtype": "float32", "shape": [512]}, {"name": "bn5b_branch2c/gamma", "dtype": "float32", "shape": [2048]}, {"name": "bn5b_branch2c/beta", "dtype": "float32", "shape": [2048]}, {"name": "bn5b_branch2c/moving_mean", "dtype": "float32", "shape": [2048]}, {"name": "bn5b_branch2c/moving_variance", "dtype": "float32", "shape": [2048]}, {"name": "bn5c_branch2a/gamma", "dtype": "float32", "shape": [512]}, {"name": "bn5c_branch2a/beta", "dtype": "float32", "shape": [512]}, {"name": "bn5c_branch2a/moving_mean", "dtype": "float32", "shape": [512]}, {"name": "bn5c_branch2a/moving_variance", "dtype": "float32", "shape": [512]}, {"name": "bn5c_branch2b/gamma", "dtype": "float32", "shape": [512]}, {"name": "bn5c_branch2b/beta", "dtype": "float32", "shape": [512]}, {"name": "bn5c_branch2b/moving_mean", "dtype": "float32", "shape": [512]}, {"name": "bn5c_branch2b/moving_variance", "dtype": "float32", "shape": [512]}, {"name": "bn5c_branch2c/gamma", "dtype": "float32", "shape": [2048]}, {"name": "bn5c_branch2c/beta", "dtype": "float32", "shape": [2048]}, {"name": "bn5c_branch2c/moving_mean", "dtype": "float32", "shape": [2048]}, {"name": "bn5c_branch2c/moving_variance", "dtype": "float32", "shape": [2048]}, {"name": "bn_conv1/gamma", "dtype": "float32", "shape": [64]}, {"name": "bn_conv1/beta", "dtype": "float32", "shape": [64]}, {"name": "bn_conv1/moving_mean", "dtype": "float32", "shape": [64]}, {"name": "bn_conv1/moving_variance", "dtype": "float32", "shape": [64]}, {"name": "conv1/kernel", "dtype": "float32", "shape": [7, 7, 3, 64]}, {"name": "conv1/bias", "dtype": "float32", "shape": [64]}, {"name": "fc1000/kernel", "dtype": "float32", "shape": [2048, 1000]}, {"name": "fc1000/bias", "dtype": "float32", "shape": [1000]}, {"name": "res2a_branch1/kernel", "dtype": "float32", "shape": [1, 1, 64, 256]}, {"name": "res2a_branch1/bias", "dtype": "float32", "shape": [256]}, {"name": "res2a_branch2a/kernel", "dtype": "float32", "shape": [1, 1, 64, 64]}, {"name": "res2a_branch2a/bias", "dtype": "float32", "shape": [64]}, {"name": "res2a_branch2b/kernel", "dtype": "float32", "shape": [3, 3, 64, 64]}, {"name": "res2a_branch2b/bias", "dtype": "float32", "shape": [64]}, {"name": "res2a_branch2c/kernel", "dtype": "float32", "shape": [1, 1, 64, 256]}, {"name": "res2a_branch2c/bias", "dtype": "float32", "shape": [256]}, {"name": "res2b_branch2a/kernel", "dtype": "float32", "shape": [1, 1, 256, 64]}, {"name": "res2b_branch2a/bias", "dtype": "float32", "shape": [64]}, {"name": "res2b_branch2b/kernel", "dtype": "float32", "shape": [3, 3, 64, 64]}, {"name": "res2b_branch2b/bias", "dtype": "float32", "shape": [64]}, {"name": "res2b_branch2c/kernel", "dtype": "float32", "shape": [1, 1, 64, 256]}, {"name": "res2b_branch2c/bias", "dtype": "float32", "shape": [256]}, {"name": "res2c_branch2a/kernel", "dtype": "float32", "shape": [1, 1, 256, 64]}, {"name": "res2c_branch2a/bias", "dtype": "float32", "shape": [64]}, {"name": "res2c_branch2b/kernel", "dtype": "float32", "shape": [3, 3, 64, 64]}, {"name": "res2c_branch2b/bias", "dtype": "float32", "shape": [64]}, {"name": "res2c_branch2c/kernel", "dtype": "float32", "shape": [1, 1, 64, 256]}, {"name": "res2c_branch2c/bias", "dtype": "float32", "shape": [256]}, {"name": "res3a_branch1/kernel", "dtype": "float32", "shape": [1, 1, 256, 512]}, {"name": "res3a_branch1/bias", "dtype": "float32", "shape": [512]}, {"name": "res3a_branch2a/kernel", "dtype": "float32", "shape": [1, 1, 256, 128]}, {"name": "res3a_branch2a/bias", "dtype": "float32", "shape": [128]}, {"name": "res3a_branch2b/kernel", "dtype": "float32", "shape": [3, 3, 128, 128]}, {"name": "res3a_branch2b/bias", "dtype": "float32", "shape": [128]}, {"name": "res3a_branch2c/kernel", "dtype": "float32", "shape": [1, 1, 128, 512]}, {"name": "res3a_branch2c/bias", "dtype": "float32", "shape": [512]}, {"name": "res3b_branch2a/kernel", "dtype": "float32", "shape": [1, 1, 512, 128]}, {"name": "res3b_branch2a/bias", "dtype": "float32", "shape": [128]}, {"name": "res3b_branch2b/kernel", "dtype": "float32", "shape": [3, 3, 128, 128]}, {"name": "res3b_branch2b/bias", "dtype": "float32", "shape": [128]}, {"name": "res3b_branch2c/kernel", "dtype": "float32", "shape": [1, 1, 128, 512]}, {"name": "res3b_branch2c/bias", "dtype": "float32", "shape": [512]}, {"name": "res3c_branch2a/kernel", "dtype": "float32", "shape": [1, 1, 512, 128]}, {"name": "res3c_branch2a/bias", "dtype": "float32", "shape": [128]}, {"name": "res3c_branch2b/kernel", "dtype": "float32", "shape": [3, 3, 128, 128]}, {"name": "res3c_branch2b/bias", "dtype": "float32", "shape": [128]}, {"name": "res3c_branch2c/kernel", "dtype": "float32", "shape": [1, 1, 128, 512]}, {"name": "res3c_branch2c/bias", "dtype": "float32", "shape": [512]}, {"name": "res3d_branch2a/kernel", "dtype": "float32", "shape": [1, 1, 512, 128]}, {"name": "res3d_branch2a/bias", "dtype": "float32", "shape": [128]}, {"name": "res3d_branch2b/kernel", "dtype": "float32", "shape": [3, 3, 128, 128]}, {"name": "res3d_branch2b/bias", "dtype": "float32", "shape": [128]}, {"name": "res3d_branch2c/kernel", "dtype": "float32", "shape": [1, 1, 128, 512]}, {"name": "res3d_branch2c/bias", "dtype": "float32", "shape": [512]}, {"name": "res4a_branch1/kernel", "dtype": "float32", "shape": [1, 1, 512, 1024]}, {"name": "res4a_branch1/bias", "dtype": "float32", "shape": [1024]}, {"name": "res4a_branch2a/kernel", "dtype": "float32", "shape": [1, 1, 512, 256]}, {"name": "res4a_branch2a/bias", "dtype": "float32", "shape": [256]}, {"name": "res4a_branch2b/kernel", "dtype": "float32", "shape": [3, 3, 256, 256]}, {"name": "res4a_branch2b/bias", "dtype": "float32", "shape": [256]}, {"name": "res4a_branch2c/kernel", "dtype": "float32", "shape": [1, 1, 256, 1024]}, {"name": "res4a_branch2c/bias", "dtype": "float32", "shape": [1024]}, {"name": "res4b_branch2a/kernel", "dtype": "float32", "shape": [1, 1, 1024, 256]}, {"name": "res4b_branch2a/bias", "dtype": "float32", "shape": [256]}, {"name": "res4b_branch2b/kernel", "dtype": "float32", "shape": [3, 3, 256, 256]}, {"name": "res4b_branch2b/bias", "dtype": "float32", "shape": [256]}, {"name": "res4b_branch2c/kernel", "dtype": "float32", "shape": [1, 1, 256, 1024]}, {"name": "res4b_branch2c/bias", "dtype": "float32", "shape": [1024]}, {"name": "res4c_branch2a/kernel", "dtype": "float32", "shape": [1, 1, 1024, 256]}, {"name": "res4c_branch2a/bias", "dtype": "float32", "shape": [256]}, {"name": "res4c_branch2b/kernel", "dtype": "float32", "shape": [3, 3, 256, 256]}, {"name": "res4c_branch2b/bias", "dtype": "float32", "shape": [256]}, {"name": "res4c_branch2c/kernel", "dtype": "float32", "shape": [1, 1, 256, 1024]}, {"name": "res4c_branch2c/bias", "dtype": "float32", "shape": [1024]}, {"name": "res4d_branch2a/kernel", "dtype": "float32", "shape": [1, 1, 1024, 256]}, {"name": "res4d_branch2a/bias", "dtype": "float32", "shape": [256]}, {"name": "res4d_branch2b/kernel", "dtype": "float32", "shape": [3, 3, 256, 256]}, {"name": "res4d_branch2b/bias", "dtype": "float32", "shape": [256]}, {"name": "res4d_branch2c/kernel", "dtype": "float32", "shape": [1, 1, 256, 1024]}, {"name": "res4d_branch2c/bias", "dtype": "float32", "shape": [1024]}, {"name": "res4e_branch2a/kernel", "dtype": "float32", "shape": [1, 1, 1024, 256]}, {"name": "res4e_branch2a/bias", "dtype": "float32", "shape": [256]}, {"name": "res4e_branch2b/kernel", "dtype": "float32", "shape": [3, 3, 256, 256]}, {"name": "res4e_branch2b/bias", "dtype": "float32", "shape": [256]}, {"name": "res4e_branch2c/kernel", "dtype": "float32", "shape": [1, 1, 256, 1024]}, {"name": "res4e_branch2c/bias", "dtype": "float32", "shape": [1024]}, {"name": "res4f_branch2a/kernel", "dtype": "float32", "shape": [1, 1, 1024, 256]}, {"name": "res4f_branch2a/bias", "dtype": "float32", "shape": [256]}, {"name": "res4f_branch2b/kernel", "dtype": "float32", "shape": [3, 3, 256, 256]}, {"name": "res4f_branch2b/bias", "dtype": "float32", "shape": [256]}, {"name": "res4f_branch2c/kernel", "dtype": "float32", "shape": [1, 1, 256, 1024]}, {"name": "res4f_branch2c/bias", "dtype": "float32", "shape": [1024]}, {"name": "res5a_branch1/kernel", "dtype": "float32", "shape": [1, 1, 1024, 2048]}, {"name": "res5a_branch1/bias", "dtype": "float32", "shape": [2048]}, {"name": "res5a_branch2a/kernel", "dtype": "float32", "shape": [1, 1, 1024, 512]}, {"name": "res5a_branch2a/bias", "dtype": "float32", "shape": [512]}, {"name": "res5a_branch2b/kernel", "dtype": "float32", "shape": [3, 3, 512, 512]}, {"name": "res5a_branch2b/bias", "dtype": "float32", "shape": [512]}, {"name": "res5a_branch2c/kernel", "dtype": "float32", "shape": [1, 1, 512, 2048]}, {"name": "res5a_branch2c/bias", "dtype": "float32", "shape": [2048]}, {"name": "res5b_branch2a/kernel", "dtype": "float32", "shape": [1, 1, 2048, 512]}, {"name": "res5b_branch2a/bias", "dtype": "float32", "shape": [512]}, {"name": "res5b_branch2b/kernel", "dtype": "float32", "shape": [3, 3, 512, 512]}, {"name": "res5b_branch2b/bias", "dtype": "float32", "shape": [512]}, {"name": "res5b_branch2c/kernel", "dtype": "float32", "shape": [1, 1, 512, 2048]}, {"name": "res5b_branch2c/bias", "dtype": "float32", "shape": [2048]}, {"name": "res5c_branch2a/kernel", "dtype": "float32", "shape": [1, 1, 2048, 512]}, {"name": "res5c_branch2a/bias", "dtype": "float32", "shape": [512]}, {"name": "res5c_branch2b/kernel", "dtype": "float32", "shape": [3, 3, 512, 512]}, {"name": "res5c_branch2b/bias", "dtype": "float32", "shape": [512]}, {"name": "res5c_branch2c/kernel", "dtype": "float32", "shape": [1, 1, 512, 2048]}, {"name": "res5c_branch2c/bias", "dtype": "float32", "shape": [2048]}], "paths": ["group1-shard1of25", "group1-shard2of25", "group1-shard3of25", "group1-shard4of25", "group1-shard5of25", "group1-shard6of25", "group1-shard7of25", "group1-shard8of25", "group1-shard9of25", "group1-shard10of25", "group1-shard11of25", "group1-shard12of25", "group1-shard13of25", "group1-shard14of25", "group1-shard15of25", "group1-shard16of25", "group1-shard17of25", "group1-shard18of25", "group1-shard19of25", "group1-shard20of25", "group1-shard21of25", "group1-shard22of25", "group1-shard23of25", "group1-shard24of25", "group1-shard25of25"]}]}